model/lstm_model_15.pth (torch, 453598 bytes, 16 tensors)

lstm.weight_ih_l0 f4 [256, 99]
00000000: 8221 66bc 01c9 da3c e116 12bd 34b1 573d
00000010: 0575 babd 928c 143e 629e 133d 263d cc3d
00000020: 19af 973d a29b e9bb cb93 17be 5822 04bd
00000030: cda1 c33c 06c5 16bd cb67 c3bd 14fa 0d3d
00000040: a528 9b3d 577b 153d 54bc 6cbd 801d 9cbd
00000050: 1476 40bd 39ff a6bb 9736 17be d216 f1bd
00000060: d0ea 64bd 2ab8 bf3d e83d 03be 74c1 563d
00000070: 0785 32bd fc54 c13d cce4 bdbd a013 2f3d
00000080: 232d ba3c 143e 4d3d 9216 36be 70de 24bc
00000090: 5b8b 913d fc12 50bd c003 d8bb 809f 8e3a
000000a0: 9053 57bd 97c0 8bbd c5ea 21bd 3292 94bd
000000b0: 73ef 403d a00c 1a3d fe93 38bc 9af3 d83d
000000c0: dfa9 973d a951 8cbd e263 eebd 2c0f 593d
000000d0: e159 dc3c 76a6 b33d 6d24 11be ca60 fb3d
000000e0: 60c3 b03d b484 ac3d 3e25 fdbc 7a22 e4bd
000000f0: 8d56 fc3d 9b7f 3d3d f6bd a7bd a2e0 a8bd
00000100: 78c0 4abc 1627 31bc 745b 36be dc38 47bd
00000110: a253 80bc aa77 1c3d 1776 26be 603b fc3c
00000120: 24af 243e 24c8 8fbd 44e8 de3c ca38 dd3d
00000130: 385a fd3d 1516 c3bd 2cef 2fbe 4060 f0bb
00000140: a5b5 0d3e 952a 1dbd 5569 21be e019 7fbd
00000150: c0af 513d 881a dc3c 3871 9e3c 79ed 48bb
00000160: de3d 0fbe 5324 9cbd 32bf 8dbd 2739 c6bd
00000170: 3345 e7bd 0d21 553d c458 e23d df90 43bd
00000180: 8fca 98bd 38e5 3ebc 85ff dbbd 52be a9bd
00000190: 794a 3bbd cea8 4d3d b015 29bc e10c a73d
000001a0: 9c55 94bd fe89 a5bd 8ea2 dd3d 442b 1d3c
000001b0: 3e12 b0bd 279c b2bd 0c6b acbd e9e9 d63d
000001c0: 985d 643d 0f8a 22bb 7863 a3bc b60d bcbd
000001d0: 586d c23d ba36 173c 4a4b a6bd 1a2e a2bd
000001e0: 310a df3d 0fa0 febd 5eab 91bd df59 6f3d
000001f0: 30db 32bd 0f8b 20bd 60e0 f3bd fcdc debc
00000200: ee57 b13d eb3f 033d 8015 f3bc a298 a6bd
00000210: 39ab 02be c9e4 1abe f0cf 41bd 621d 233c
00000220: 3e99 cebd 6d8f 26be 300b 6bbd 34a9 853d
00000230: 3856 b63d 3aa8 4bbc 28fc 773d 9b95 813d
00000240: 532d ed3c f9c4 67bc 68bf 3d3d cfd9 0b3e
00000250: b2a3 54bb 88e7 7a3c c250 aa3d a5b5 ed3b
00000260: 5f82 ecbc e2d5 56bd b03b f0bc 51e7 123e
00000270: 8cec 9ebd 9c6a c4bd 7028 94bd 4956 323d
00000280: 7b18 253d 7204 25be b0e4 5c3d c23a fb3d
00000290: 89bc b5bd c771 f03b 2003 a5bd f77b bb3d
000002a0: 9b37 a53d 6025 733d 80e8 2dbb 6d90 9d3d
000002b0: 049d c93a b8f6 0b3d 7869 813d 26a9 4b3d
000002c0: 09e6 d23d 5373 8dbd 9891 ba3d 6fcb a63c
000002d0: 1df5 b6bb 059f 84bd 40c9 593d 640d fd3d
000002e0: 77bc 1cbd 6feb 01bd d931 40bd d04f 5eba
000002f0: 3e92 b73c c375 d6bc 158b f63d 72b0 17bd
00000300: c4fe b93c 32d6 ab3d b94d e23c 048b 1d3d
00000310: 46fb 103e d36b 863d 81f3 173e 3550 f23d
00000320: 9e51 4f3d 1c3a 453d 89c1 afbd 88b6 903d
00000330: b10a 35be c067 56bb d88e eb3d a3a0 923d
00000340: 10c8 123c 56f7 823d 6002 44bd b1fe 9ebd
00000350: 3cec c4bc 60e5 2cbd e1ae b53d c65a 843c
00000360: 88c6 12be 44b8 d4bd e6a4 c93d f788 aebd
00000370: 3a22 01be c0ec 6b3b 3930 0a3e 0315 223d
00000380: 923f e0bd 06a0 c5bd 8b9c 413d f331 1dbc
00000390: 2a1f 463c 642b e13d d440 7c3d 4e0e 91bd
000003a0: e3fd 2a3d 2cfe 0abd 410b 0a3e 7d61 c1bd
000003b0: 1442 293d b061 f53d f365 0d3d 4709 063e
000003c0: 3018 debd c04b eabc d69f 6dbb 22e9 c2bd
000003d0: e9ea 923c 9252 973d 792b f1bc 348c 43bd
000003e0: 2c08 30bd 74df 743d aee6 043c 16d9 023b
000003f0: 5c6f 7abd a06c e83b 74e0 033e 86fe cabc
-0.014046075 0.026707174 -0.03566635 0.05265923 -0.09104351 0.14506748 0.036039717 0.09972601
0.07406444 -0.0071291486 -0.14802472 -0.032259315 0.023880864 -0.03680899 -0.09541281 0.03466232
0.07576112 0.03649458 -0.05779679 -0.07622814 -0.046987608 -0.005096343 -0.14766918 -0.11771931
-0.055887997 0.093612984 -0.12816584 0.052430585 -0.043583896 0.094400376 -0.09272155 0.042743325
0.022726601 0.05010803 -0.17782047 -0.010062799 0.07106658 -0.050799355 -0.006592244 0.0010881275
-0.052569926 -0.06823843 -0.039530534 -0.07254447 0.047103357 0.037609696 -0.011265753 0.10593338
0.07405447 -0.06851513 -0.11640145 0.052992985 0.026898326 0.08771984 -0.14174052 0.122743204
0.08631015 0.084237486 -0.030901548 -0.111393884 0.12321196 0.046264272 -0.08190529 -0.0824597
-0.01237499 -0.0108125415 -0.17808324 -0.04863821 -0.01566488 0.038200058 -0.16255985 0.030790031
0.16082436 -0.07020596 0.027210362 0.10801847 0.123707235 -0.09525696 -0.1718108 -0.0073356926
0.13838823 -0.038370688 -0.15762837 -0.062280536 0.051193 0.02686812 0.019341096 -0.0030659123
-0.13988444 -0.07624116 -0.06921233 -0.0967887 -0.112924956 0.052033473 0.11052087 -0.04774558
-0.0746051 -0.01165133 -0.10742096 -0.08288254 -0.04572532 0.050209813 -0.010320112 0.08156753
-0.07242891 -0.080829605 0.108220205 0.009592835 -0.085972294 -0.0872119 -0.08418855 0.104938336
0.05575332 -0.0024801528 -0.019944891 -0.09182303 0.09493512 0.009229356 -0.08119829 -0.079189494
0.10890616 -0.124328725 -0.07112764 0.058435317 -0.043666065 -0.039195117 -0.119080305 -0.027204983
0.086593494 0.03204338 -0.029673338 -0.08134581 -0.12760629 -0.15126337 -0.047317445 0.009955736
-0.100878224 -0.1626565 -0.057383716 0.065264136 0.08903164 -0.012430245 0.06054321 0.06327363
0.028952276 -0.014146083 0.046325117 0.13657306 -0.0032446203 0.01531399 0.083161846 0.0072543197
-0.02887076 -0.05245007 -0.029325336 0.14346053 -0.077599615 -0.095906466 -0.07234275 0.04353932
0.04030655 -0.16114977 0.05392903 0.122670665 -0.08873851 0.007337782 -0.08057237 0.09154504
0.080672465 0.059361815 -0.0026536286 0.07693563 0.0015381877 0.034170836 0.06318945 0.04972186
0.10297782 -0.06906762 0.09109801 0.020360677 -0.005583419 -0.06475643 0.053170443 0.1235607
-0.03826567 -0.031718668 -0.04692254 -0.0008480521 0.0224086 -0.0261792 0.120382465 -0.037033506
0.02270449 0.08390464 0.027624952 0.038462654 0.14158353 0.065635346 0.14838983 0.118317045
0.050614946 0.04815112 -0.08581836 0.07066065 -0.1767986 -0.0032715648 0.11501855 0.07159545
0.008958831 0.06394832 -0.047853827 -0.07763422 -0.024038427 -0.042210937 0.08871246 0.016156565
-0.14333546 -0.103867084 0.09845905 -0.08522218 -0.12610713 0.0035999268 0.13494958 0.03957082
-0.10949625 -0.09649663 0.04726843 -0.009594428 0.012092391 0.10994604 0.061585262 -0.070828065
0.04174603 -0.033933803 0.13480856 -0.094424225 0.041322783 0.11981523 0.034521054 0.13089477
-0.10844457 -0.028600574 -0.00362586 -0.09517123 0.01793428 0.07388796 -0.029439675 -0.04774113
-0.042976543 0.059783414 0.008111639 0.001996582 -0.061141357 0.0070930272 0.12878591 -0.02477957

lstm.weight_hh_l0 f4 [256, 64]
00000000: 57e9 e43d 596f d43d b22e 4b3d 997f a3bd
00000010: 447a 0b3d 39c1 df3b b06b d43d 5e51 01be
00000020: a14e 90bc c676 8fbd 8f21 99bd 7dbd 99bd
00000030: 54ca 963c c303 0cbb 63a1 253e d1ef e03d
00000040: 9cc6 8cbd 4289 85bd 6224 e13d b000 553d
00000050: 999e b93d acd5 fc3d d14b 85bd eaf4 c43d
00000060: 9c21 dd3c d5ab 853d 9eeb 28bd dc99 783b
00000070: 4f8b 053d 292e bcbc 382a 55bc 841f a1bd
00000080: c8df 25be a058 babd 24ec fcbb 50e5 563d
00000090: 5e42 bebd 48ea e43d 5113 41bd ef94 09bd
000000a0: 38b1 fa3d 8720 ab3d 5ae1 fe3d 3e42 0b3d
000000b0: acc9 043d a5a6 0abb be7f 00be 131f 68bd
000000c0: 0544 243d cf98 67bd 4caa db3d 2faf ddbd
000000d0: e31f 633d 8613 c4bd e12e 92bd 57ce 9f3d
000000e0: 4d72 f2bd fad2 f6bd 03e5 563d 6afd 7b3b
000000f0: 1e40 aabd 2a01 a33d b0d7 3dbe 4166 b73d
00000100: c355 71bd 60b8 f7bb fc33 8c3c 437a a23c
00000110: d9a0 9d3d c334 51ba 6fd2 e13d ea1c e93d
00000120: 6389 05be 55ed be3d 5fa0 0a3d 848b 093e
00000130: 9147 c43d 683c 613d 035b 1dbd 83a0 76bd
00000140: b9be 9d3c 748d fe3d cfe5 c83d f8b7 883d
00000150: 7715 023d 7661 a6bd d28e ba3c 9a0e b43d
00000160: 543b eabd 3b3c 55bc 08b2 1e3d 7134 50bd
00000170: fc7d b9bd 70d6 06be 09c5 91bc f2bb 963d
00000180: ef5b e0bd 12d5 8a3d a1a8 8a3d 78a0 7b3d
00000190: de47 3c3c 5a9a 6bbd aa68 133d bb25 35be
000001a0: f519 25bd 0aad 0cbe 3514 b4bd fa0b 2bbe
000001b0: 4455 47bd aa86 e0bc 5f85 a3bd 734a 033e
000001c0: d1f7 803d 8e71 0a3e 7027 b63c 2cdf 4c3b
000001d0: e329 98bd c77c 41bd 4ca0 cc3d 951e 643c
000001e0: fa2e 7f3d b919 f3bd ce84 0e3d e1a2 103d
000001f0: ac88 073e 0900 6f3d 3b63 05bc f211 a43d
00000200: c5d8 04be 3ea4 863d 394a 88bd 23c9 523d
00000210: 7110 17be b3be 80bd 75c8 7a3d 95b3 ea3d
00000220: 3410 4d3d fd9c 333d 6f28 b7bd 5763 4bbd
00000230: d85f a73b 705b f63c c8e2 01be 8391 7cbd
00000240: fd09 2e3d f3ae e6bd 6c8f 963d 0eb2 9cbc
00000250: 9981 aabd 9c46 b33d 2dbd b33d 74e4 1bbd
00000260: 32be edbd 0ec8 f6bc 8440 493d 7ab5 1ebe
00000270: 0080 5fbc 4fc7 8a3d 8604 073d b3b6 a3bd
00000280: d6b2 4e3d 4b44 8e3d 96ce c83d a6bd 58bc
00000290: 3562 3ebd 73e9 893d 48ac 15be 2930 91bc
000002a0: d8fd bf3c 7e5d b5bd df20 db3d 77e4 9b3d
000002b0: 9e9b 8fbc 8df2 43bd d611 ebbd 8956 76bd
000002c0: b3d6 e23d 45a3 24bd 74c2 6a3d a6a8 21bc
000002d0: 69e5 983d ada1 06be a96f 07bc 74da ca3d
000002e0: a854 0d3d 99ad e7bc fea2 3c3d af38 51bc
000002f0: 323a 09bd b703 d1bd 6e89 f4bb 1dcb 97bd
00000300: d391 803d 1654 b13d 5cf7 f6bd 930e b03d
00000310: d351 51bd ced5 a03c 5216 5c3d 9229 09be
00000320: bdf3 27bd 1935 233e 221c 003c 903a 74bd
00000330: 2e78 76bc f5fb b03c 8b4d c6bc f5ce adbb
00000340: 3ffa 1f3c 0c66 6c3c 861e b73c 4df2 34be
00000350: 3f24 96bd 5d98 ccbd c5d5 f63c 29dd 373d
00000360: e3e0 a13d 0d55 7fbd ac85 7e3d 454e bdbd
00000370: 8548 4bbd bb03 cfbd 2043 633c f5d3 57bd
00000380: 7e48 b8bd b601 ea3c 9f7d b53d 89ff acbc
00000390: fa28 543d 0e4f e6bc 0ef2 9b3d d6df 3abe
000003a0: 6bed f7bd b17e e8bd b91e fb3b f511 2abe
000003b0: 3f8c eabd 0875 023d 6b5c ac3b 7eea 2d3e
000003c0: 8106 953c 22a6 b83d 5f9a ffbd ba7c c63d
000003d0: 1258 f53c 8b5e 963d eddb 7d3d d60e c3bd
000003e0: 8c05 f1bd a77d 9a3d 9814 aebc a872 acbc
000003f0: e35d dabc fe8c 973d 957d b5bd 12a2 70bd
0.111773185 0.103728004 0.04960508 -0.07983322 0.03405215 0.006828454 0.10372102 -0.12628695
-0.017615618 -0.07005076 -0.07477104 -0.07506845 0.018407024 -0.0021364547 0.16174845 0.10983241
-0.06873819 -0.065203205 0.109932676 0.05200261 0.09063453 0.12345442 -0.065086015 0.09617026
0.026993565 0.06526915 -0.041240327 0.0037933504 0.03260356 -0.02297123 -0.013010554 -0.07867339
-0.16198647 -0.09098935 -0.00771858 0.052464783 -0.09290002 0.11177498 -0.047137562 -0.0335893
0.12240833 0.083558135 0.12445326 0.03399872 0.03241889 -0.0021156457 -0.1254873 -0.05667026
0.04010393 -0.056542214 0.10725841 -0.10824429 0.05545033 -0.09574036 -0.07137848 0.07803028
-0.118382074 -0.12051959 0.052464496 0.0038450607 -0.08313011 0.079592064 -0.1853931 0.0895505
-0.05891968 -0.007559821 0.017114632 0.01983369 0.07696695 -0.00079805794 0.11026465 0.11382468
-0.1304069 0.09322611 0.033844348 0.13432127 0.09583963 0.05498925 -0.038416874 -0.06021167
0.019255983 0.12429324 0.098094575 0.06675714 0.03175875 -0.08124058 0.02277318 0.087918475
-0.11437097 -0.013014848 0.038744003 -0.050831262 -0.09057233 -0.13167739 -0.017794149 0.073600665
-0.10955035 0.06778921 0.06770445 0.06143233 0.011491744 -0.057520248 0.035988487 -0.17690174
-0.040307958 -0.13737884 -0.08792917 -0.16703787 -0.0486653 -0.027407963 -0.07984423 0.12821369
0.06297267 0.1351988 0.022235602 0.003126095 -0.07429864 -0.047238138 0.09991512 0.013923307
0.06230066 -0.118701406 0.03479462 0.035311583 0.1323573 0.058349643 -0.008141334 0.08011235
-0.12973316 0.065742955 -0.06654782 0.05146135 -0.14752366 -0.06286373 0.061226327 0.11460034
0.05006428 0.043850888 -0.08943259 -0.049655285 0.005107861 0.030072898 -0.12684166 -0.06166221
0.042489994 -0.11263838 0.07351574 -0.019127872 -0.083255 0.08753702 0.08776317 -0.038059667
-0.116085425 -0.03012469 0.049133793 -0.15498915 -0.013641357 0.06776296 0.0329633 -0.079938315
0.05046352 0.069466196 0.09805028 -0.013228809 -0.046480376 0.0673398 -0.14616501 -0.01772316
0.023436472 -0.08855723 0.10699629 0.076119356 -0.017530259 -0.047838736 -0.11478011 -0.06014112
0.11076107 -0.04019477 0.05731435 -0.009866869 0.074656315 -0.13147612 -0.008266368 0.09904948
0.034504563 -0.02828102 0.04605388 -0.012769862 -0.033502765 -0.10205787 -0.007462672 -0.07411788
0.06277814 0.08658616 -0.12058899 0.0859653 -0.051103424 0.0196332 0.053732224 -0.13394764
-0.04100393 0.15938224 0.007819207 -0.059626162 -0.0150433015 0.021604517 -0.024206897 -0.005304212
0.009764253 0.014428627 0.022353422 -0.17670555 -0.07331132 -0.099899985 0.03013123 0.04488865
0.07904222 -0.06233697 0.0621392 -0.09243444 -0.049629707 -0.101081334 0.013870984 -0.052692372
-0.08998202 0.028565269 0.08861851 -0.021117942 0.05179689 -0.028113868 0.07614528 -0.18249449
-0.12105831 -0.113522895 0.0076635745 -0.16608413 -0.11452531 0.03184989 0.0052600405 0.16983983
0.018191578 0.09016062 -0.12480616 0.096917585 0.029949222 0.073422514 0.061977316 -0.09524314
-0.11768636 0.075434975 -0.021250054 -0.021050766 -0.026656097 0.07399939 -0.088618435 -0.058748312

lstm.bias_ih_l0 f4 [256]
00000000: 0579 08bd 4bb1 af3c 9075 783d 2337 0d3e
00000010: ad69 98bc b7fa c4bd 9a76 0b3e 3eb3 b3bd
00000020: 3e7a 0d3e f417 fabd aefd 083d b9b4 ea3d
00000030: dee2 dd3d 4a40 9cba 46c2 e83d 4b1f bbbd
00000040: 18f8 fe3d e7f1 803d 42cd ec3d 7ad0 8f3d
00000050: 4e82 4f3d c6db e73d bcd2 3b3d 3358 9bbd
00000060: fc16 f5bd 8b62 5f3d 4a1e d4bc ea58 c93d
00000070: 1cfb 06be b112 4cbd 3a9d 9ebd df2a e13d
00000080: 47f0 303d 5a41 053d 7e2b fabd 7234 1bbe
00000090: ff83 06be 0b59 87bd a9cd f23d df02 df3d
000000a0: a8d0 49bd 4a35 92bd 66d4 4ebd d700 eb3d
000000b0: 7524 13bc 355f 703d c084 f33d dee2 b33d
000000c0: ff29 fcbb 0df4 b23d 7f69 da3a d20b 42bd
000000d0: 9ac8 d13d 6061 abbd 9b86 88bc ff29 3b3c
000000e0: 5d3b b6bd 968b a1bd e7e3 713d b360 7cbd
000000f0: b1bc 8fbb 1c57 843d 3413 f33c 8364 313e
00000100: 1b3a 383d 7673 cdbd 2ac5 103d cf0c b8bd
00000110: 4027 c53d 0454 27bd 1087 113e feee 863d
00000120: 35ee 6f3d 5119 833d 19dd e43d 4a40 ffbd
00000130: b721 793c c6a8 af3d 42e4 013e 41cc 4cbd
00000140: e83d 0e3d a981 31bd f9f1 14be e514 b53d
00000150: 79da 433d 6862 7bbc c614 ec3d 9580 e0bc
00000160: 2231 ffbc d7c3 c0bd f8ef a83d 181b 73bd
00000170: bf43 debc f8e5 f03b 03b4 1a3e ff9b d03c
00000180: 3365 f93c 025a 8d3d 30ae b7bd 0a75 f4bc
00000190: 79bd 573c a0fd 9cbc b158 2f3e 3ee1 d43d
000001a0: e394 153d c0bb 90bd bb40 d5bd 3d07 16bd
000001b0: 4245 5ebd dc1a 3abd cae7 933d dccf 16bd
000001c0: 401e 48bd 5e23 f63c 71d0 15be bbdc ac3b
000001d0: 0061 82bd 0ac6 913d 90ff d93d e24e a93d
000001e0: 6b23 dd3d 431c 883b 6c36 8e3b 45de af3d
000001f0: aa4a db3d e852 943d 90df 9e3b 2cdf c73d
00000200: 591f 093e 0212 c23d e089 c13b 0185 95bd
00000210: cb01 d0bd 3407 a33d e557 133d b584 c53d
00000220: 5981 923d 3bc5 0f3c fa66 9abd d26c f6bd
00000230: a9ad aabd a78a 30bd 5569 f43d aa77 b7bc
00000240: c62d 0abc ce52 063e 8a4b 8bbd cede dfbc
00000250: f351 f73c 85d7 f0bc f7e6 92bd 152a c73d
00000260: 8e39 983c ef7c ed3d 795c 04bd 3a53 853d
00000270: f8cf ce3d 78f7 183d d6f5 833c 6526 b6bc
00000280: f06b 97bd 7795 81bd 7f80 953d 001f 183c
00000290: 6853 84ba b2c7 0fbd 8672 5fbd e5aa a73d
000002a0: 92e6 9a3d 0711 b3bc efd6 883d 2240 d2bd
000002b0: 3ed9 d1bd ff29 a43d 4010 09be 535c 57ba
000002c0: 563e b9bd c7e1 d23b 91ef e8bd c372 bc3d
000002d0: a766 afbd 7e66 213d 3245 cf39 8614 9c3d
000002e0: bb6d 07be e4ea a93d a6ed 093c 9f7e adbc
000002f0: 82d8 783d 9c8f b3bd 7d14 c0bd 4d64 d73d
00000300: f55d a9bd d772 263d a3fb 793d 9d15 eabb
00000310: 3b57 b43d db88 4dbd 5ca0 333d 4055 973d
00000320: cabd 4f3d b90d e5bc 9d76 febc d5c1 91bd
00000330: 58f6 d23d 8641 093e ab02 563d 7314 71bd
00000340: 49b2 67bd 1871 3f3c 46c7 0ebd 0869 3b3d
00000350: 55bc 373d 153e 0f3e 3ee0 a4bd 1eeb 65bd
00000360: c57a 313d d953 aabd ff46 d6bd 81fd cc3d
00000370: 2142 1bbd deb7 d1bd 696d ad3d f6e0 9a3d
00000380: f2d8 dc3d 3e61 fb3d 16d1 fabd ac6b bf3c
00000390: 991e 10bd f1b2 433c 7407 84bc a40f 7fbd
000003a0: de3f 393d 6d71 833c 5be9 453d 544d ff3d
000003b0: b2b6 dabd 5c5d fabd 54fe 69bd e811 8a3c
000003c0: a02c 01be 4213 ad3d e79e 913d ea4b 2f3d
000003d0: 8e81 bd3d 4cdd 023e c0ac 243e f523 a5bc
000003e0: 48d1 6ebd cd6b efbc 5a43 a23d 3537 88bd
000003f0: eaa6 fe3d 1d40 223e 48e3 99bc ead3 12bd
-0.03331854 0.021446845 0.06065899 0.13790564 -0.018605078 -0.096181326 0.13619462 -0.08774422
0.13816163 -0.122116 0.033445053 0.11460251 0.10834287 -0.0011921015 0.1136518 -0.09136828
0.12449664 0.06296139 0.11562587 0.070221856 0.050661378 0.11321215 0.04585527 -0.07585182
-0.119672745 0.054537337 -0.02589335 0.09831412 -0.13181728 -0.049822513 -0.07744832 0.10994505
0.043197896 0.032533027 -0.12215327 -0.15156725 -0.1313629 -0.066087805 0.11855633 0.108892195
-0.049271256 -0.0713907 -0.050495528 0.114747696 -0.00898086 0.058684547 0.118905544 0.08783506
-0.007695436 0.08737955 0.001666352 -0.047374554 0.1024334 -0.08368182 -0.016665747 0.011423587
-0.088980414 -0.07887952 0.059055235 -0.061615657 -0.0043865074 0.06461927 0.029672243 0.17323498
0.04497729 -0.10031788 0.03534428 -0.08986818 0.09626627 -0.040851608 0.14211679 0.06588553
0.05857678 0.06401313 0.111749835 -0.12463434 0.015205792 0.08577113 0.1268473 -0.04999948
0.034727007 -0.043336544 -0.1454543 0.08841876 0.047815774 -0.015343286 0.115274 -0.027405063
-0.031151358 -0.094123535 0.082488954 -0.05935201 -0.027131913 0.007351633 0.15107732 0.02546501
0.030443763 0.06901933 -0.089687705 -0.029840965 0.013167732 -0.019163907 0.17123677 0.10394524
0.036518943 -0.070670605 -0.10412737 -0.036627997 -0.05426527 -0.04543577 0.07221945 -0.036819324
-0.048856974 0.030046161 -0.14630295 0.0052753366 -0.063661575 0.07117851 0.10644448 0.08266999
0.10797771 0.0041537597 0.0043399837 0.085873164 0.107076004 0.072423756 0.004848428 0.097593635
0.13390864 0.09476091 0.0059063286 -0.07300759 -0.10156592 0.07960358 0.035972495 0.096444525
0.07153577 0.008775051 -0.075391725 -0.120324746 -0.08333904 -0.04310098 0.11934153 -0.022395927
-0.008433765 0.13117525 -0.06801517 -0.027327921 0.030190444 -0.029399643 -0.07172959 0.097248234
0.018582132 0.11596095 -0.03231475 0.06510015 0.10098261 0.03734538 0.016108435 -0.022235105
-0.07393634 -0.06327336 0.07299899 0.009284735 -0.0010095658 -0.035102554 -0.054552577 0.081868924
0.07563509 -0.021858705 0.0668162 -0.102661386 -0.10246514 0.080158226 -0.13385105 -0.00082153565
-0.09045093 0.006435606 -0.11373819 0.092015766 -0.08564501 0.039404385 0.0003953367 0.07621102
-0.13225453 0.08296755 0.008418476 -0.021178542 0.060753353 -0.08767626 -0.09378908 0.10517178
-0.08269874 0.040636864 0.061030995 -0.00714369 0.088057004 -0.050179344 0.043854102 0.07389307
0.050718106 -0.027960645 -0.031062419 -0.07117049 0.103008926 0.13403901 0.052248638 -0.058857393
-0.05656651 0.0116846785 -0.03485801 0.045754462 0.04485734 0.13988526 -0.08050583 -0.05613243
0.043329973 -0.08316774 -0.1046276 0.100092895 -0.037904862 -0.10240148 0.08468134 0.07562439
0.107835665 0.12274407 -0.12246911 0.023366772 -0.03518543 0.011944518 -0.016116835 -0.062270775
0.045226924 0.016045297 0.04831825 0.12465921 -0.106793776 -0.12224838 -0.05712731 0.016854241
-0.1261468 0.08450939 0.07110386 0.042797007 0.09253226 0.1277973 0.16081524 -0.020158747
-0.058305055 -0.029226208 0.079230025 -0.06651155 0.1243418 0.1584477 -0.018785134 -0.03584663

lstm.bias_hh_l0 f4 [256]
00000000: 28e7 2dbd 8a6e ac3d 4ecf 9e3c 5217 babd
00000010: 0343 2e3d 2c0e cf3b a234 a23c fad9 203e
00000020: 73ad a63d 197d 0c3d 14dc 353e 9a4f c1bc
00000030: 547a d53c 55b0 8b3c ac08 f33d 6b87 0abc
00000040: b331 3ebd ad49 7abc d386 4a3d a5b1 4f3d
00000050: 026c f0bd ef05 d33c 3944 e4bd 0d03 1a3d
00000060: ed8f 06bd bd89 943d 6e50 b6bd 231c 253a
00000070: 64a4 b6bd 23b4 933d 84db 1d3e 8af3 dcbc
00000080: 07f0 18bc 0368 9e3d f0fd eebd 6b53 41bd
00000090: c23e cdbd e7c7 773d e301 03bd 4960 99bd
000000a0: 9b1b 6cbd 33d0 68bd 1a86 3c3d afc1 3d3d
000000b0: a1ca ed3c 9be5 02bd 82bc f63d 40b8 6e3b
000000c0: 0317 c3bb f7ce 9ebd a4b6 e8bd d297 463d
000000d0: b114 a83c 19ec c33c 7d8a a73c d497 be3c
000000e0: 15e2 c9bd ae15 e63d f4ea ee3d 3260 c53d
000000f0: f6d7 803d c5a3 8ebd 53d8 803c 4751 88bc
00000100: 7520 8abd d047 bebd ea9e 8c3d e619 743d
00000110: f4dd c8bd a736 b53d 0665 043e 7763 c8ba
00000120: 1bf4 bf3c 4ee8 30bd c9b6 a83d bb58 8ebd
00000130: 25b0 f23d 7954 b83c dd0a c13d ad8b dbbd
00000140: a767 f33d 76e7 b1bd 8b63 153d 164c 903c
00000150: 0ccc 05be 3c4b ef3c 0764 f3bd f6b7 a2bd
00000160: a8ac c4bc d9cc 6ebd 3e77 dfbd 8d78 6b3d
00000170: 5db6 84bc 4f17 da3d 5b3a f33c f4ad 173c
00000180: 409f e2bc fa56 f5bd 6555 953b 49d2 e4bd
00000190: 871a 033e 90ce 193e 222c 27bd d3da 023e
000001a0: 7572 b83d e526 69bd 41a8 953d fb28 8f3d
000001b0: d2bf 943d cdac 523d ee65 d13d 142d 10bd
000001c0: cedd 023e aefa d53d c086 cfbc f9dc 413d
000001d0: dbe4 cd3d e939 e73d de51 08bd 906c e73c
000001e0: 34dc e93c c554 9e3d b93f abbd 44b6 983c
000001f0: 344b 6b3c 7005 683d 114f ddbc c84b 94bd
00000200: 95af 133e 95ea 033e b070 cb3c b316 a53c
00000210: cb72 073e d62f 1bbe 6796 98bd 8bad 8b3d
00000220: 1ff3 d7bd e46f 83bc 0033 fabd b45f 513d
00000230: a9b3 4f3d 711d 66bd 2dc6 c53d 457b 3bbd
00000240: 0fa3 25bd a4c8 2cbd e757 09be db02 b3bd
00000250: 44b4 303d 006b aabd 8b04 603c e5a7 b33d
00000260: 36d0 af3d 5d2e 4abd 2131 a9bd 78b1 bebc
00000270: 57af 6e3d 580f 3b3d 2527 643d 8271 733b
00000280: ae9e 6abc 99c6 85bd ef4f e43d 8d46 a8bd
00000290: 4205 8c3d 6dae 1a3e 6176 aabd 9853 843d
000002a0: 409f 88bd a7f7 d6bc fca9 5cbd 2d00 d13c
000002b0: cccd f5bd 6d3d ac3d f4bc e0bd 7962 243e
000002c0: 34c1 0cbe 0de0 3fbd 1d46 b13c e922 243d
000002d0: f124 e6bd 6892 edbd a1c2 67bd fd61 133e
000002e0: ee49 883d 865c 40bc 64ab 9bbd 0546 debd
000002f0: 9d22 fe3d 9eeb fbbd f1f3 cdbd f703 163d
00000300: e7e2 e1bd d419 c63b 1ecf 87bc a314 4f3d
00000310: 5f89 80bd cbe1 38bd a950 90bd d133 e1bb
00000320: e32c 14ba 8414 f3bd aa8d e73d 19a1 4dbd
00000330: 0c52 993d 60cb ee3c 9aa4 dc3d 9b4c 0c3c
00000340: fd6c bb3b 6825 053e e629 babc 98cb 41bd
00000350: 8632 b7bd c0d8 b6bd 6882 e3bd fdef f33d
00000360: 5c1f 823d a63c 47bd 97a5 33bd 177f 89bd
00000370: 3827 efbd ba3d 743d 5ec1 223e d4c0 5a3d
00000380: 6072 66bd 0039 ed3d fcf8 0dbe 9252 21be
00000390: c971 e43d 6066 39bd 931d 4b3d 4af9 873d
000003a0: ec4b 443d f2d0 a83d 1180 c13d 1ad2 b63d
000003b0: 3e6c d0bd 6a4d c3bd 745e d2bd b3ce 9e3c
000003c0: 3c7f de3c ab42 21bd 7567 af3d af2a 00be
000003d0: 8a68 e13d cd5e b23d 0697 423d 9be8 433d
000003e0: df9f 52bd 369d e6bc 1ce3 bb3d a0eb b93d
000003f0: bf9d 13bd 915e 513d 012c 803d 4e1a c93a
-0.042456776 0.08419521 0.01938596 -0.09086479 0.042544376 0.006318828 0.019800488 0.15708151
0.081385516 0.03429899 0.17759734 -0.023597527 0.026059307 0.017051855 0.118668884 -0.008455138
-0.046434116 -0.015276355 0.049444985 0.050706524 -0.11739351 0.025759665 -0.11145825 0.037600566
-0.032852102 0.07252834 -0.089020595 0.0006298443 -0.08918074 0.07212093 0.1541577 -0.026971597
-0.009334571 0.077346824 -0.116695285 -0.047198694 -0.10021736 0.060493376 -0.03198422 -0.07489068
-0.057643514 -0.05683918 0.046026327 0.04632729 0.029027285 -0.03195725 0.12047674 0.003642574
-0.005953671 -0.07754319 -0.11362961 0.04848463 0.020517679 0.023916291 0.020451779 0.023265757
-0.09857575 0.11234604 0.116659075 0.096374884 0.06291191 -0.0696483 0.015728151 -0.016640319
-0.06744472 -0.09291041 0.06866248 0.05959501 -0.09807959 0.08848315 0.12929162 -0.0015288432
0.023431828 -0.043190293 0.082379885 -0.06950518 0.11850003 0.022501217 0.094259 -0.107200004
0.118850045 -0.08686726 0.036471885 0.017614406 -0.13066119 0.02921068 -0.11884313 -0.07945244
-0.02400811 -0.058300827 -0.109114155 0.057488013 -0.016200239 0.10648977 0.029690912 0.009257782
-0.027663827 -0.1197948 0.004557299 -0.11172921 0.12803088 0.15020204 -0.040813573 0.12778787
0.09006206 -0.05692186 0.073074825 0.06990238 0.07263149 0.051434327 0.1022452 -0.03519924
0.12779924 0.10448204 -0.025332808 0.047329877 0.10053416 0.11290342 -0.0332812 0.028250009
0.028547384 0.07731012 -0.083617635 0.018641599 0.014361192 0.05664581 -0.02701524 -0.072410166
0.14422448 0.12882455 0.024834007 0.020152425 0.13227384 -0.15154967 -0.07450562 0.0682021
-0.105444185 -0.016044565 -0.12216759 0.05111666 0.050708447 -0.05618042 0.0965694 -0.045771856
-0.040438708 -0.042183533 -0.13412438 -0.08740779 0.043140665 -0.0832119 0.013672958 0.08772258
0.08584635 -0.04936062 -0.08261324 -0.023277983 0.058272686 0.04566893 0.055701394 0.0037146513
-0.014320059 -0.0653202 0.111480586 -0.082165815 0.0683694 0.151056 -0.0832336 0.06461257
-0.066709995 -0.026241137 -0.053873047 0.02551278 -0.12002143 0.084101535 -0.1097354 0.1605319
-0.13745576 -0.04684453 0.021639878 0.040072355 -0.11237515 -0.116001904 -0.056582097 0.14392848
0.06654726 -0.011740809 -0.076010495 -0.10853199 0.12408946 -0.123008 -0.10056294 0.036624875
-0.11029606 0.0060455594 -0.016578253 0.05055679 -0.062762015 -0.045137208 -0.07046635 -0.006872632
-0.00056524406 -0.118691474 0.11306317 -0.050202463 0.07486352 0.029149711 0.10773583 0.008563186
0.0057197795 0.1300255 -0.022725057 -0.047313303 -0.089451835 -0.089280605 -0.111088574 0.119110085
0.063536376 -0.048641823 -0.04385909 -0.067136936 -0.11677402 0.05962918 0.15894076 0.05340655
-0.05626142 0.115831375 -0.13864511 -0.15754154 0.11154515 -0.045263648 0.04958875 0.06639345
0.047923967 0.08242978 0.09448255 0.089267924 -0.101768956 -0.0953625 -0.10271922 0.019385671
0.02716028 -0.03937022 0.08564655 -0.12516282 0.11006267 0.08709488 0.04750731 0.04782925
-0.051421996 -0.028151136 0.09174177 0.09078145 -0.03603911 0.051115576 0.06258393 0.0015342922

lstm.weight_ih_l1 f4 [256, 64]
00000000: b2b8 893c abe4 763d 395e 95bc 6031 babd
00000010: 0315 92bd 0b66 febd a003 443c 4971 e23c
00000020: 831c 7a3d 32eb 443e f431 c1bd 962e 2e3d
00000030: fedb 87bd c42c cebd 6e02 cbbd 9e38 11be
00000040: 543c 29bd 04b2 8d3c 1d32 37bd 5626 c93d
00000050: 2ce3 9b3b c5be 363d 45d6 11bd 001d 2c3d
00000060: c5bc 053e 691e c23b e946 d33d deb6 5bbd
00000070: 6442 fb3c 1675 c23d deeb 1abe 1b27 ab3c
00000080: 6ead a13c 9462 cd3b 045b f13c 8073 ea3d
00000090: 05fc ea3d dadb b5bd 79a3 debc 3c6d b1bd
000000a0: 5b5e f73d e694 cc3c eacf dcbd c64f 303c
000000b0: eba7 873d 0465 3bbd 9d57 d13d dc7b 413d
000000c0: 5ac9 293d ebea 333d 259a d4bd c69c 80bc
000000d0: d265 113d 0a10 333b 79fc f4bd d24b 9dbd
000000e0: c4ca f73b 8b05 9dbd cddd f5bd abee 84bd
000000f0: 062b 89bd 5a45 0e3e 9821 cfbd dc52 5a3c
00000100: c786 003d 6793 3fbc b1de 32be 470f 26bc
00000110: e7e1 923d aea9 033d 2d7b 54bd 1b32 61bc
00000120: c956 acbb a433 303e e4f2 853d 9a30 cd3c
00000130: 24c3 313d c93c ca3d 924d eebc 17c0 06be
00000140: 6968 b83d 6c4f 6d3d 8ff0 9cbd da2d 833d
00000150: 5ae7 93ba 7da7 f93d d00e 81bd 24e1 2b3d
00000160: 9985 cc3d adf3 57bd b06b c6bc 0d6f f83d
00000170: 0094 993d 45b6 c73c 42ab edbd 5738 42be
00000180: aaa3 a4bd aed9 89bd f4b6 abbb 0dcf 0abd
00000190: f935 d53d 2156 56bd 4038 1d3d fb44 1dbd
000001a0: fae2 cf3c f286 22be 381e 9cbd ffb5 9cbd
000001b0: b410 83bc ec07 f63d d678 43bd dfc4 be3d
000001c0: d0de 6dbd f768 293c bc40 d13d c82d bf3c
000001d0: 0588 f8bd 98dd ecbc 782b b13d f07c 5cbd
000001e0: 671a 38bd a654 adbd 0f35 28be 2277 ca3d
000001f0: 2309 0cbd 4ce4 8f3d ea0e 0ebc 2c6f 9abc
00000200: 43ee edbd d0d0 fcbd 44f5 e4bd 23f4 473d
00000210: e31e 963c d864 1bbe 5579 eb3d cc9f af3b
00000220: cc98 5f3d a1d4 b7bd e880 393d ee8a a83c
00000230: 3dc9 43bc ec94 cbbd 626e a3bd a6ba ef3d
00000240: c5be 25be 0c59 45be b52e 44be e1e6 00be
00000250: de11 1d3c 6e6a 5c3a 4bd5 2bbd 6c88 7fbd
00000260: 2486 253d 76cf 3a3d cff8 06bd cb8a 13be
00000270: 0cd8 a1bd 18ab 18bd a480 27bd 8b95 a23c
00000280: 11d4 8cbd c285 553d 31f1 b9bc 828b 9c3d
00000290: 8b7e 963d 02b5 963d 35b3 0ebd b2ea 6fbd
000002a0: efd7 81bc 8b06 1b3d eeb2 6c3d 1ed1 09be
000002b0: a816 d83d d67c 8f3d f231 b1bd 46f4 8f3d
000002c0: dc1b e03d a343 dc3d 59a6 1cbc c138 0e3d
000002d0: 81e7 ca3d 67c8 92bd 3ec9 673d 2453 903d
000002e0: 441a 0a3d 630d 043d 1ff7 903d 1289 183e
000002f0: c3d4 4c3e 5943 e23c c1bc b5bc 3c48 3cbe
00000300: fc0c cc3c 1bd7 cf3d 43f0 983d b52d ae3c
00000310: 16a6 c3bd 1e2f 16be b3a7 2b3e fe13 dabd
00000320: b3b8 a7bd b8f4 943d a6b9 aabd d17c 053d
00000330: 02c5 dfbd d867 743d d46a 153d 3cd9 c4bc
00000340: f49e 823d d649 09be bc3d 10be 1bde e83c
00000350: 1ec1 0c3e a344 043e b7e5 c73c 9850 873d
00000360: e34c dcbd 050a ce3d fa63 03be ddfb b1bd
00000370: cc30 45be 3b17 5cbd 3085 853d 9d1f a6bb
00000380: 3102 17be 38dc febd 5c73 403d 2541 79ba
00000390: 82d8 103e c0fe dcbd 9c84 d43d 71f6 7fbd
000003a0: 25b0 8db9 b34b f7bc df8a 0bbd 668e afbd
000003b0: 3f04 c8bd 6f81 5b3d fdf4 07be 02e0 53bd
000003c0: 7460 153e 1da1 9abb fd02 c6bd 0753 c23d
000003d0: 60cb 9fbc 5cbf 0ebe bb9a 4abd c22c 0fbe
000003e0: 9464 453d 33bf 09be d061 72bd 1891 b2bd
000003f0: ca01 c4bd d10c e1bd 0ed2 44bd 56b1 bfbc
0.016811702 0.06027667 -0.018233405 -0.09091449 -0.07132914 -0.12421807 0.011963755 0.02764191
0.061062347 0.19230345 -0.09433356 0.042524897 -0.06633757 -0.10067132 -0.09912573 -0.14181754
-0.0413173 0.017296799 -0.044725526 0.09821765 0.0047573056 0.044615526 -0.035604734 0.042019844
0.13060291 0.0059240353 0.103162594 -0.053641193 0.030671306 0.094949886 -0.15129039 0.02089267
0.019736018 0.006267855 0.029462345 0.11447811 0.1147385 -0.08879824 -0.02717756 -0.08663413
0.12078544 0.024973344 -0.10781844 0.010761207 0.06623825 -0.045750633 0.10221789 0.047237262
0.04145179 0.043925207 -0.10380963 -0.015699755 0.035497494 0.0027322792 -0.11962218 -0.07680477
0.0075620133 -0.07667073 -0.12005196 -0.06490835 -0.06697659 0.13893643 -0.101138294 0.013325419
0.031378534 -0.011692858 -0.17467763 -0.010135478 0.07171994 0.03214424 -0.051875282 -0.013744856
-0.005259369 0.172072 0.06540468 0.02504759 0.04339899 0.09874875 -0.029089723 -0.13159214
0.0900429 0.05793707 -0.076630704 0.0640523 -0.0011284158 0.12190149 -0.063016534 0.041962758
0.09986419 -0.05272262 -0.024221271 0.12130556 0.07498932 0.024378905 -0.116049305 -0.18966804
-0.08039029 -0.06730972 -0.0052403156 -0.033888865 0.10410685 -0.052328233 0.038383722 -0.038395863
0.025376786 -0.1587179 -0.07622951 -0.076519005 -0.015999176 0.1201323 -0.04772266 0.09314894
-0.05807382 0.010339967 0.10217425 0.02333726 -0.12135319 -0.028914258 0.08650869 -0.053830087
-0.044947054 -0.08463411 -0.1642649 0.09886004 -0.0341884 0.07025966 -0.008670548 -0.018851839
-0.116177104 -0.12344515 -0.11179593 0.04881681 0.018325275 -0.15175188 0.114977516 0.0053596254
0.054589078 -0.089761026 0.04528895 0.02057406 -0.011949834 -0.09940514 -0.07980038 0.11705522
-0.16186054 -0.1927225 -0.19158442 -0.12588073 0.009586779 0.0008408193 -0.04195146 -0.06238596
0.04041113 0.045608006 -0.032952126 -0.14408414 -0.07902536 -0.037272543 -0.040894166 0.019846698
-0.06876386 0.052129515 -0.022698017 0.076437965 0.07348355 0.07358743 -0.034838874 -0.058573432
-0.015850035 0.037848037 0.05778783 -0.13458678 0.10551196 0.070062324 -0.086521044 0.07029013
0.10942814 0.10755088 -0.009561145 0.034722093 0.09907437 -0.0716713 0.056588404 0.07047108
0.033716455 0.03223933 0.070783846 0.14896038 0.20003037 0.027620004 -0.022184731 -0.1838693
0.024908535 0.1014845 0.07467701 0.02126203 -0.09553163 -0.14666411 0.16763191 -0.106483445
-0.081895255 0.07273239 -0.08336191 0.032589737 -0.10926248 0.059669346 0.036478832 -0.024029367
0.06377974 -0.13407072 -0.1408605 0.02842622 0.13745543 0.12916808 0.024401529 0.06607169
-0.107568525 0.10060505 -0.12831107 -0.08690617 -0.19256896 -0.05373309 0.06519544 -0.0050696866
-0.1474693 -0.12444347 0.046985015 -0.00095083035 0.14145091 -0.10790777 0.10376856 -0.062490884
-0.00027024854 -0.030187463 -0.034067985 -0.08572082 -0.09766435 0.053590234 -0.1327705 -0.051727302
0.14587575 -0.004718913 -0.09668539 0.094884925 -0.019506156 -0.13940185 -0.04946397 -0.13981918
0.048191622 -0.13451843 -0.059175313 -0.08719081 -0.09570654 -0.10988773 -0.048051886 -0.02339999

lstm.weight_hh_l1 f4 [256, 64]
00000000: cac3 4fbc 23b2 e7bd f77f 4a3d 0bd4 b0bd
00000010: 8c92 d7bd 91d6 5e3c d53c 8abd cef6 b63d
00000020: 3ac0 cfbc 18f6 0d3d 15d0 c9bd 2a62 043e
00000030: 280e babd a271 55bc 0d30 053d 91be 0a3d
00000040: e2aa f73d fdac ec3c e423 90bd 4fb3 46bd
00000050: 634e 073e 3a02 33bd a7fe eabd 984d fb3d
00000060: 9389 173d 936e 9abd 340c 4fbd 707c 5fbc
00000070: 27e5 5bbd 99b5 51bd 4421 e93d f50c e63c
00000080: 2340 56bd 05c2 35bd 26b4 90bd 33f7 053e
00000090: a453 eb3d 04a9 033e b6f6 0a3d 1f24 423d
000000a0: 45c2 9e3d 078c c63d bb29 56bd 63d7 3e3d
000000b0: 850d 0d3e 7cb5 edbd 7bf2 8dbd 906d ed3d
000000c0: 7a12 72bc 60e5 df3c 2697 1bbd 8e2b bd3b
000000d0: 771a 823d d200 fc3d d985 0f3d c03c 52bc
000000e0: 238d 44bd 2887 9dbc dd36 6c3d e698 c0bd
000000f0: 2495 40bc f017 7fbd ec1e ccbd 83a0 423d
00000100: ef9c 05be 3b3f 3cbc 5b5e b53d 769c 4f3d
00000110: ae47 7f3d 19e8 a03d cf37 863d 3ed4 3f3d
00000120: 5b8f 0a3d 254f e93c 4687 523b 317a 433d
00000130: 7cb5 a03d 7496 20bd 1a84 7c3d 7ebd e5bd
00000140: 2c01 cabd a5a8 26bd b44e 633d c100 e9bd
00000150: 60e0 3b3d 9586 f3bb b642 cabc 71e5 31be
00000160: 83d8 9a3d a550 c93d 12f6 7abd a753 96bd
00000170: adbe 59bd 0824 0fbe 13e7 02be 4607 4cbd
00000180: 14c2 53bd e9d0 2b3d 9dd1 9ebd e69f 6cbd
00000190: 9fb8 d83c 73e1 4e3c 8cbf a4bd 03fa e1bb
000001a0: 2c87 783d a460 ca3d 94b4 423e 5747 8cbd
000001b0: 092d 193e e6ab 003e 6590 cdbd bd42 eb3d
000001c0: 86b2 c03d 8f35 b23c a0c4 633d 62b6 6fbd
000001d0: 0b80 1b3e cb7d 283d e2dc 99bd 93dd 993d
000001e0: 7554 20bc 5a33 123e 9c2c e03c 3bfa f03d
000001f0: b310 253d 3169 c93d b2dc 243d be6f c63d
00000200: 0eb1 2bbd 35c9 7ebd a2a3 35bd 65f9 ef3b
00000210: 225b 273d 0f62 0abd 073e d03d 4504 ee3d
00000220: 5d8e 763b 119e debb fbf4 cf3c 5383 c83c
00000230: f671 91bd 8377 e03c e92a fe3c 1a1c 69bd
00000240: a59b c43d b433 28be e75d 95bd 5dd8 c1bd
00000250: 85e9 f3bd 797c debd 43bc 153d fa44 f03d
00000260: ff64 043e 07e5 71bd dc36 3dbd 5d9d 12bd
00000270: 03fa af3d fe3f 98bd b998 ef3d 499b d3bd
00000280: 461f 8dbd 551c afbc 6c70 d3bd e939 3bbd
00000290: b1ba d3bc 323f 023d db9e 383d eb73 f13d
000002a0: 0638 09bd d6de 003d 0126 aabd d54b fcbd
000002b0: 1356 b13d ac50 f9bc 5b85 04bd ae43 a5bd
000002c0: b1fe 97bd e844 02bd 1db9 373d eac8 3cbc
000002d0: 81c5 83bd 5382 013e 17cb 493c 2d40 99bd
000002e0: e1c1 663d 8591 78bd 83bb 5d3d aeb2 143d
000002f0: efeb 003e 22d7 00be 153e 9bbd eaa9 193e
00000300: 8a64 fa3d 6d88 33bc f96e c63d 5a1a 28bd
00000310: cb45 843d 855c d63d 4c28 8f3b 7ef7 06bd
00000320: 2914 a93d 4d62 b33d 5e7f 8c3d da33 7ebd
00000330: 1783 d13d a884 b4bc e50b 0e3e 4ae3 9bbd
00000340: 10b5 bc3d 1ad9 f83b 334d 2c3b ed0d ebbc
00000350: 1597 fdba 7df6 04bd 75d1 bc3b 76a9 543d
00000360: b11a bb3d 055b 1fbc 8d5f 0b3c e9f7 03bd
00000370: 1521 dd3d adc7 95bd 17ff 733b d2fa 6c3d
00000380: e812 ed3d b09f d53d 66fb 6b3c 0866 ed3c
00000390: 3d3a 34bc e4d9 a3bd 7bd4 f63c a310 bb3d
000003a0: 122a c53c db4f bfbc d928 e7bc f058 943d
000003b0: 18b8 3a3e 4776 63bd c96f d8bd 6478 a13d
000003c0: c7f9 f8bd 36c3 b53c 5c3d 13bc 9fdf 153d
000003d0: 4116 3bbd 78c3 ec3c 6946 0abd 95e1 3abd
000003e0: adda 51bc b5cb 5e3d ea81 873d fee8 b8bd
000003f0: e3e7 25bd ce6f dd3c c829 71bd 1798 63bd
-0.012680957 -0.11313274 0.049438443 -0.08634194 -0.105259985 0.013600961 -0.06749884 0.08933793
-0.025360215 0.03465852 -0.098541416 0.12928072 -0.09084731 -0.01302758 0.032516528 0.033873145
0.1209314 0.028891081 -0.070380956 -0.048510846 0.13213496 -0.043703295 -0.11474352 0.12270659
0.036996435 -0.075406216 -0.050548747 -0.013640508 -0.053685334 -0.051198576 0.11383298 0.02808235
-0.05230726 -0.044374485 -0.070656106 0.1308258 0.114905626 0.12857443 0.033926688 0.04739773
0.07751898 0.09694677 -0.05228589 0.046592128 0.13774689 -0.11606881 -0.06931015 0.11593163
-0.014774913 0.027331054 -0.037985943 0.0057730144 0.06352704 0.12304844 0.035039756 -0.012831867
-0.04798616 -0.019229487 0.05766951 -0.09404163 -0.011754308 -0.062278688 -0.099668354 0.047516357
-0.13048147 -0.011489685 0.088558875 0.050686322 0.06232422 0.07856769 0.065536134 0.04683327
0.03382812 0.028480122 0.0032124086 0.047723953 0.078471154 -0.039205983 0.06164942 -0.112177834
-0.09863505 -0.040688176 0.05549498 -0.11377097 0.045868278 -0.007431815 -0.024690013 -0.17372681
0.075608276 0.09829835 -0.061269827 -0.07340174 -0.05316036 -0.13978589 -0.1278346 -0.049811624
-0.05169876 0.04194728 -0.07754824 -0.05776968 0.026455222 0.0126269935 -0.08044347 -0.006896259
0.060675785 0.09881714 0.19014198 -0.068495445 0.14958586 0.12565574 -0.10037307 0.11487339
0.09409051 0.021754054 0.055607438 -0.058523543 0.15185563 0.04113559 -0.07512833 0.07512965
-0.009785761 0.14277402 0.027365021 0.11766478 0.04029913 0.09834517 0.040249534 0.09689282
-0.0419169 -0.062203605 -0.044345506 0.0073234313 0.040858395 -0.033784922 0.10168081 0.11621908
0.0037621476 -0.0067937453 0.02538537 0.024476683 -0.071018144 0.027400738 0.03102632 -0.056911565
0.09599999 -0.16425973 -0.07293301 -0.09465096 -0.11909775 -0.10863585 0.036556493 0.11731906
0.12929152 -0.059056308 -0.046194896 -0.035794605 0.08592608 -0.074340805 0.116990514 -0.10332353
-0.068907306 -0.021375814 -0.10324177 -0.045709524 -0.025845857 0.03179855 0.04507337 0.11789688
-0.033500694 0.031462513 -0.0830803 -0.12319151 0.086589955 -0.030433975 -0.03235374 -0.080695495
-0.074216254 -0.031803995 0.044854272 -0.011522511 -0.06434155 0.12647371 0.012316487 -0.07482944
0.05633724 -0.060685653 0.054133903 0.036303215 0.12590002 -0.12582067 -0.075802006 0.15006223
0.122262076 -0.010957819 0.09689135 -0.041040756 0.064586245 0.104668655 0.0043688174 -0.03295087
0.08255798 0.08758984 0.06860231 -0.06206117 0.102300815 -0.022035912 0.13871725 -0.07611711
0.092142224 0.00759424 0.0026291132 -0.028693164 -0.0019347394 -0.032461632 0.005762274 0.051919423
0.0913595 -0.009726291 0.008506668 -0.032218847 0.107973255 -0.07313476 0.0037230903 0.05785639
0.11575872 0.104308486 0.0144032 0.028979316 -0.011000213 -0.08000544 0.030130615 0.091340326
0.024067912 -0.023353508 -0.02821772 0.07243526 0.18234289 -0.05553272 -0.10568196 0.07884291
-0.12157016 0.02218781 -0.008986797 0.036590215 -0.04567552 0.0289018 -0.033758555 -0.045625288
-0.012808484 0.05439349 0.06616576 -0.09028815 -0.040504348 0.027030852 -0.058877736 -0.055564966

lstm.bias_ih_l1 f4 [256]
00000000: 91c2 90bd 9478 203b 9660 96bd 02e3 3dbd
00000010: 09c6 a5bb 5d1e 8c3d ea22 c13d 5f2d eb3d
00000020: b091 e1bc eff8 ff3d 3917 c13d 8332 18bd
00000030: cbf7 5e3d 24d4 d239 9e60 04bd fef4 a9bc
00000040: b9b3 8b3d 234a b83d 2a4a ca3d 5a46 b5bd
00000050: f2b6 933d 250b a1bb a31d 833d 6606 853b
00000060: 27f6 3f3d 02af 85bc 1391 8f3d 3909 e03c
00000070: 89ff 843d b965 3b3d 6038 8b3d 22bf 23bc
00000080: 13c5 e83d 9124 743d bf54 2f3d e06f d8bc
00000090: f662 243d a27d fa3d c657 713d 9192 b13d
000000a0: 0499 a73d cc71 80bd 9e78 073b a975 e63d
000000b0: cafc bebd 014f 0b3e 04f9 a7bd 2ce4 aa3d
000000c0: dfbb d93d bf4b 19bc b77d 49bd 3ff4 04bd
000000d0: 9951 433d 876a ec3d 5655 b7bd 699a 353e
000000e0: 038d 94bd 78ab 913d f304 213e e095 cb3d
000000f0: 397d c93d f661 59bd 0a88 ffbc dfc9 4fbc
00000100: 7fd1 993d e642 3abd 9424 c73b 9003 723c
00000110: e18b ffbc ccb9 a33d 763d b23b 44c1 163d
00000120: b21d c0bd 6e4f 58bd de17 cbbd fd4e e13d
00000130: bf96 eabd 9bcc ee3d 71a0 b03b c34c 173d
00000140: 1ba3 923d 5c16 efbc 6a83 753d 69fc d4bd
00000150: 9a36 a3bd 1898 8a3d 87e3 953d c0bb 583d
00000160: f4dc 043e 2e17 e6bd e76f abbd 4278 68bc
00000170: 1f62 76bd fee1 7d3d 7b22 cabd 33c6 2fbd
00000180: aca9 293d 0059 97bd 48ce b63d 4ea3 d9bd
00000190: bb93 e73d c941 9c3d c5f6 163e 9c5e 83bd
000001a0: 4173 ee3b 7a72 a13d b26d b93c f162 99bd
000001b0: d101 d9bc fa14 863d d44d 073e 1e00 f73d
000001c0: dc3d 183d 9c27 303e b1b6 553d 30f1 97bd
000001d0: aeeb 223d b7e8 86bc 546c ca3d 33e5 f33d
000001e0: cbcd 813d 0062 9abd efff fb3d 9c27 8e3d
000001f0: 980d dabd 5292 00bd dc9e 8f3d 028f 863d
00000200: 7df3 e2bd 3407 adbd 2294 1d3c 7257 49ba
00000210: 9d59 a03d cf06 acba 4ece 03be 3103 edbd
00000220: 6a01 843d 2d98 8bbd f677 adbd 1ed2 003e
00000230: 6878 e2bd cbee 9dbd 744a 0c3e 41e9 853d
00000240: 0fed 693d 1e5b 763d 88c2 983c 3d03 cfb8
00000250: 0f39 883d 81dd e93d 604a be3d 5ef5 e9bd
00000260: 4c95 bbbc de52 edbd 19a5 f8bc 60e0 c93d
00000270: cdf3 2ebd f09c 7fbd 8f46 333d e426 d03d
00000280: 6623 593d 77f1 aa3d d5ae 9fbd 6736 093e
00000290: 2f86 a0bd 9ba3 9b3c 8a65 0c3e 106b 423d
000002a0: ca4c 6d3d a53c b83d 7a01 813d b639 06bd
000002b0: cd45 c9bd 45b7 c4bd 774d 83bd 2876 ce3d
000002c0: 8145 dd3d b34b d8bc e916 c7bd e4f2 aebd
000002d0: e473 ad3d ada1 273d 46e0 0e3e f3ab d737
000002e0: 1dd2 183c c93d 173e dac4 323c 7b32 15bd
000002f0: 2796 903b d29a a3bb a406 ff3d fee9 913c
00000300: 2224 42bd 0a06 a6bc e343 dc3c 8188 a23d
00000310: 105e 043e a8bf 643d 85f6 1fbb 4a7e b03d
00000320: 9eb1 95bc 632e 073e 4a81 9e3d b32c 45bc
00000330: 1d2e e7bd 9458 dc3d ccf3 df39 ae45 9d3d
00000340: 4c2a 3b3e c57f a93c 0407 2abd 913a f43b
00000350: f92d e7bc c747 6bbd cf00 8cbd e3bd db3d
00000360: 101e 73bd 8a73 b4bc eb5a a83c 99f5 713d
00000370: d9ea e53d 4708 80bd 5370 b93d 1c8e 853d
00000380: b808 5b3d 9ed3 c23c 9763 3e3d 6d7e da3d
00000390: 0aba 213e 0525 75bd 0328 56ba 0071 513d
000003a0: 9c88 e33c 8610 bdbb ae82 16bd 207a fc3c
000003b0: 6a50 8abd 3134 d53d 3c87 133d 1332 8c3d
000003c0: 7bc9 213e 1629 fd3d cd88 d6bd 1209 5b3d
000003d0: 6174 b0bd cb02 e4bc 94a1 e63c 8698 be3d
000003e0: 7b00 52bd 4a83 ff3c 7dec 203e 1641 da3c
000003f0: ee04 193e 4dc1 063e 66dc da3d 1349 123e
-0.070683606 0.0024485933 -0.07342641 -0.04635907 -0.005059008 0.06841729 0.094304875 0.11483263
-0.02753529 0.12498652 0.094282575 -0.037157547 0.054435533 0.00040212378 -0.032318704 -0.020746704
0.06821389 0.089985155 0.09877427 -0.08851309 0.072126284 -0.0049146586 0.06402137 0.0040596006
0.04686561 -0.016318802 0.070100926 0.027348148 0.06494052 0.045751307 0.06797862 -0.0099943
0.11365714 0.059605185 0.04280543 -0.026420534 0.04013344 0.12230994 0.058921598 0.086705334
0.08183482 -0.06271705 0.0020671259 0.11252911 -0.093255594 0.13604356 -0.08201793 0.083443016
0.10631537 -0.009356438 -0.049192157 -0.032459494 0.04768524 0.11543756 -0.089518234 0.17734684
-0.07253458 0.07112783 0.15724544 0.09940696 0.098383375 -0.05307194 -0.031192798 -0.012682407
0.07510661 -0.045473956 0.0060773585 0.014771357 -0.03119463 0.07994422 0.0054394556 0.036805406
-0.09380664 -0.052810125 -0.09916662 0.11001394 -0.11454534 0.11660119 0.00539022 0.03693844
0.07160016 -0.029185466 0.05993978 -0.10399706 -0.07969399 0.06767291 0.07318788 0.052913427
0.12974912 -0.1123489 -0.08370953 -0.014188828 -0.06015217 0.0619831 -0.09869858 -0.042913627
0.041421577 -0.07390022 0.08926064 -0.10626851 0.11307474 0.07629735 0.14742573 -0.0641453
0.007276923 0.07883163 0.022635315 -0.07489575 -0.026490124 0.0654697 0.13213283 0.12060569
0.03716837 0.1720261 0.05217618 -0.0741905 0.039775543 -0.016468389 0.09883943 0.11908951
0.0633808 -0.07538223 0.12304675 0.06941149 -0.10647124 -0.031389542 0.07012722 0.06570245
-0.11081598 -0.084486395 0.009617837 -0.0007680572 0.078295924 -0.0013124588 -0.12871668 -0.11572874
0.06445582 -0.068161346 -0.08470146 0.12580153 -0.11058122 -0.07711562 0.13700277 0.0653863
0.057110842 0.06014549 0.018647447 -9.871132e-05 0.06651508 0.11419202 0.0929153 -0.11423753
-0.022898339 -0.11588071 -0.030352162 0.09857249 -0.042712975 -0.062405527 0.04376846 0.10163668
0.053012274 0.08346837 -0.077970184 0.13399659 -0.078380935 0.018998912 0.13710609 0.047465384
0.05793456 0.08995942 0.0629911 -0.03276988 -0.098277666 -0.096052684 -0.064112596 0.1008113
0.108042724 -0.026403284 -0.09721167 -0.085424215 0.0846937 0.04092567 0.13952741 2.5710067e-05
0.009327439 0.14769663 0.010911191 -0.036425095 0.004412431 -0.0049928213 0.124524385 0.017811771
-0.04739774 -0.020266552 0.02688784 0.07936192 0.12926507 0.05584684 -0.0024408412 0.08617838
-0.018273171 0.13201289 0.07739504 -0.012034583 -0.11288092 0.107590824 0.00042715517 0.07679306
0.18277854 0.020690808 -0.041510597 0.0074532707 -0.028220164 -0.0574415 -0.06836092 0.107295774
-0.05935484 -0.02202775 0.020551166 0.05907211 0.11226434 -0.06251579 0.09054627 0.06521246
0.05347511 0.023782548 0.046481695 0.10668645 0.15793625 -0.059849758 -0.00081694144 0.051133156
0.027775101 -0.005769792 -0.03674572 0.030819952 -0.06753619 0.10410345 0.03601764 0.068454884
0.15799515 0.12361352 -0.104753114 0.053475447 -0.086159475 -0.027833363 0.028153218 0.09306435
-0.05126999 0.031190533 0.15715213 0.026642364 0.14943287 0.13159676 0.10686569 0.14285688

lstm.bias_hh_l1 f4 [256]
00000000: 6bf2 c93d e6bf 1dbd aa6f ccbd 2c87 89bd
00000010: 1ddd c33d 96bd 093e 52c4 b43d 0ddd f63d
00000020: 5d55 f43d 8ee7 043e 696a 43bd eb6e 96bd
00000030: 255b e7bd e373 d73d a30d 90bc f3ad 92bc
00000040: 91a2 e5ba cdf5 dcbc 8647 193e 7a2c ed3c
00000050: 9326 3f3d 0309 0b3d eced 52bb 6c2a 83bd
00000060: 6f37 563d 2252 d3bd 0389 293d a869 083e
00000070: 8c2a 1bbd 268f c5bd f2f8 883d 276c d03d
00000080: e1ae 013e 0fb8 053e 6cea 993d 284d c73d
00000090: fb74 d63d 2e79 d23c 22a1 8abc 8777 8d3d
000000a0: 48d4 623c d4ad be3d b176 503d 4c3c 8e3d
000000b0: 8c5f a73d f7e8 f53d 03eb 893c ea07 f43d
000000c0: 292c 5b3d a546 083e 3446 70bd b67e 203d
000000d0: de0f 4a3c d72f 8fbd 6ef2 adbc 7b60 2dbd
000000e0: 7e09 593d fa93 93bc a827 c5bb 4506 76bd
000000f0: e347 983d a985 bdbd 0012 043d af62 a6bc
00000100: 0125 3d3d 85b7 98bd 0feb acbc 016a c53d
00000110: b0f7 c83d 8430 8c3d d4ff 4d3d 17e2 983d
00000120: 60cd fcbc d452 833d f317 ff3d 9b6e c83d
00000130: cf4b 9fbd 19fb 20bd 4ef9 c23d 044c 0c3e
00000140: 1b1a a4bd a153 a03d f930 28bd 3716 96bd
00000150: 44f5 97bd d43a ac3d 3f92 eebd 596b 203e
00000160: 97e3 9a3d 089c dfbd f8cb 263d f55d 873d
00000170: 6181 813d b7cb 03bb 9b54 f6bd 35a9 5e3d
00000180: 6751 c43d 6948 f83b bb2a 053e 5330 58bd
00000190: 3cf8 133d f0b8 a8bc 93b5 aabd 388b 67bc
000001a0: a545 983d 0255 f03d 52d4 54bd d3e4 dcbd
000001b0: 12e7 96bd ae12 d53c 048e 8f3b d242 ac3d
000001c0: caac 233e 4cb8 96bd 0768 feb9 b8cb c6bd
000001d0: ab89 d13d 032e 083b b423 b1bd db48 b03d
000001e0: 130a 78bc e804 713d aa77 ed3d fe79 ab3d
000001f0: e6f1 913d 1c13 cd3c 0c00 3dbd eedc f33d
00000200: 3912 b5bd b590 803c eefa febd 014c c1bd
00000210: 97d6 9c3d e01b 123d eb29 533d 1550 113d
00000220: f7e1 0dbd e528 ba3d 7a5e a63d 1389 c93c
00000230: 2857 963d a3f0 42bd f7a1 26bd 569b febc
00000240: e00b e33d 486a 343d a63c 42bd 388e eb3c
00000250: e4b7 753d 6091 1b3d a21b d5bd 1679 97bd
00000260: 91fb 0b3e bebf debc 99f8 73bd 76f7 3d3d
00000270: dad5 e23d 43cc 17bb 51c6 59bd 93f6 e63b
00000280: 9c0a 9ebc 0b62 0f3c 48d8 6e3d 04b7 643c
00000290: 833c 8c3d 1c65 cdbd 6fe3 fe3d 2c55 3a3d
000002a0: c434 ea3d 985a 0fbc a866 02bd 5fc6 89bd
000002b0: ff39 8abc 9175 b1bd 2045 9bbc 2d1f 043e
000002c0: 4a82 1b3b 9cb0 713d f536 d9bd 560f 9fbd
000002d0: b7ae d63d 5b42 213d a0d9 1a3e b344 f63d
000002e0: 2ad5 4fbd 03f9 f93d bd42 003d efd8 bc3d
000002f0: 5cca 893d 722d e1bd f4cd 9d3d d307 853c
00000300: 8ca2 59bd b40c 8abd 5a94 fc3d 2081 80bd
00000310: e490 633c 8abd 06bd 253c ed3c 20f7 873d
00000320: 35ce 223e 5dd2 1c3e daaf abbd 2843 323d
00000330: b1c6 f1bc bc00 033e 843c 063d 1ff5 10bd
00000340: 8592 263e 67ea 003e a79f 033e 2867 71bd
00000350: 9632 91bd 5a97 c03b 9500 c83b a8d3 893d
00000360: e88b 663d 42e9 a93d a96b a1bc d94e cc3d
00000370: 4488 aebc 4e58 8d3d 0d37 7d3d 40d3 bd3d
00000380: 813e f73d ac0c 61bc 8917 243c 0155 d33c
00000390: ad21 ab3d 3966 ce3d 38ed 113d 19c5 c43d
000003a0: 355c 8e3d b2bd 393c 1a18 6e3d 745f 29bd
000003b0: 3534 6bbd 70bb f03c 2b5a 1c3d 878b ac3d
000003c0: 7a55 093e 18f2 2f3e bf2e d9bd 257e 0c3e
000003d0: 24b5 71bd 8c65 ef3d 19c8 a3bd 62d1 263e
000003e0: e311 673d dda2 6f3d 71d4 763c a883 683d
000003f0: 280d 74bd d76a 4a3d cf2e d73c 26b8 dd3d
0.09860691 -0.038513087 -0.09982236 -0.06715235 0.095636584 0.13451228 0.08826508 0.12053881
0.11930344 0.12978956 -0.047708903 -0.07345375 -0.11296681 0.105201505 -0.017584627 -0.017905211
-0.0017519762 -0.026972676 0.1496869 0.028951872 0.046667647 0.03394414 -0.003218527 -0.06404576
0.05229896 -0.103184 0.04139043 0.13321555 -0.037882373 -0.09646444 0.066881076 0.101768784
0.12664367 0.13058494 0.075154155 0.09731513 0.10471531 0.025692549 -0.016922537 0.06907564
0.013844557 0.09310499 0.050894443 0.069450945 0.08172521 0.12007325 0.016835695 0.11915572
0.05350891 0.13308199 -0.0586607 0.03918334 0.012332885 -0.069915466 -0.021233764 -0.04232834
0.052987568 -0.018014897 -0.0060166903 -0.060064573 0.07435586 -0.09254009 0.03224373 -0.020310728
0.046177868 -0.074568786 -0.021108178 0.09639359 0.09812868 0.06845191 0.050292805 0.07464998
-0.03085965 0.064122826 0.1245574 0.09786721 -0.07778131 -0.039301965 0.09520207 0.13700873
-0.08012792 0.07828451 -0.04106233 -0.07328456 -0.074198276 0.08409658 -0.11648988 0.1566595
0.075629406 -0.109184325 0.040721864 0.06609718 0.06323505 -0.0020110437 -0.12027856 0.054360587
0.09585839 0.0075769913 0.13004582 -0.05278046 0.036125407 -0.020595998 -0.08335414 -0.014132313
0.07435159 0.11734964 -0.051960297 -0.10785832 -0.07368292 0.026009884 0.0043809433 0.084111825
0.15983883 -0.073593706 -0.00048524162 -0.09706825 0.10231336 0.0020779378 -0.08649388 0.08607646
-0.015139121 0.05884257 0.1159509 0.083728775 0.071262166 0.025033526 -0.046142623 0.11907373
-0.08841366 0.015694002 -0.12450205 -0.09438325 0.07658117 0.035671115 0.051553648 0.035476763
-0.034639325 0.09089831 0.08123489 0.024601495 0.073408425 -0.04759277 -0.040681805 -0.03107993
0.11086249 0.04404667 -0.04742112 0.028754339 0.059989825 0.037980437 -0.10405661 -0.07396142
0.13670184 -0.02719104 -0.059563253 0.046378575 0.11075945 -0.002316252 -0.053167645 0.007048437
-0.019292168 0.008751403 0.05831173 0.01395965 0.06847479 -0.10029051 0.12445723 0.045491382
0.114358455 -0.008749627 -0.031836182 -0.067272894 -0.016873358 -0.08665002 -0.01895386 0.12902518
0.0023728781 0.05900632 -0.10606185 -0.07766597 0.10482543 0.039369922 0.1512208 0.12024822
-0.0507404 0.12205698 0.031313647 0.09221064 0.0672805 -0.10994996 0.07705298 0.016239082
-0.053133532 -0.06740704 0.12332983 -0.06274629 0.013889525 -0.032895602 0.028959343 0.06638932
0.15898974 0.15314622 -0.083831504 0.043521076 -0.029513689 0.12793249 0.032772556 -0.035390016
0.1626683 0.12589417 0.12853871 -0.058936268 -0.070897266 0.0058774175 0.006103585 0.06729823
0.05628577 0.082964435 -0.019704657 0.099759765 -0.02130521 0.069016084 0.06182008 0.09268808
0.120724685 -0.013735931 0.010015377 0.025797369 0.083560325 0.10078091 0.03562662 0.09607906
0.06951181 0.011336731 0.058128454 -0.041350797 -0.057422835 0.029386252 0.03817193 0.0842505
0.13411513 0.17182195 -0.10604619 0.13719995 -0.05901064 0.116892904 -0.0799715 0.1629081
0.056413542 0.058504928 0.015065298 0.056766182 -0.05958286 0.049418297 0.026267437 0.10826139
