model/lstm_model_15.pth (torch, 319186 bytes, 12 tensors)

lstm.weight_ih_l0 f4 [256, 99]
00000000: 9292 693b cb2e e63b 7561 c33d 6435 adbd
00000010: 144c c83c 8022 193e 7dfc e6bd 3052 3b3c
00000020: 6738 043e 2525 a93d 56b9 8b3a 68ad 713d
00000030: d197 90bd 6673 173d 689a 283c bcfb 8b3d
00000040: 40b5 68bd e5c1 0c3e 65e9 5ebd 304a b53d
00000050: a35f 273e aaa8 1b3e fed2 2e3d 7838 15bd
00000060: 8889 f93d cdd5 073e df8d 1b3d 400e a8bd
00000070: 45bf c63c 2585 ce3d db2b 09be a84e b7bd
00000080: a540 cc3d 8ecb c93d bdd3 51bd 40bb dabc
00000090: bea6 9bbd 0ec9 24bd 5da9 ecbd 2c5f 423d
000000a0: 080d fe3d 6a4a abbc 1d4b 49bd 7869 0dbd
000000b0: 40f6 033e a9ec 223e f9f6 9d3d 408c ae3b
000000c0: a6ab fe3d 1e74 253d f860 51bd e464 ebbd
000000d0: d364 f83b df5f 123d 8844 413d 8016 b8bd
000000e0: cc95 a63c 7d90 d23c 0c9c 21be 8095 6abd
000000f0: fdda 8b3d c886 bbbc e7ab 353c 6adf 85bd
00000100: af2e e23d eb35 233d d5d8 07bd b438 a8bd
00000110: f207 2a3e f9aa 373d a80f 24be 0e5b bb3d
00000120: 35ae ae3c b263 fd3d 513f 463c c2cc aa3d
00000130: f265 6abd 4b4f a53b 1dd4 07bd 5e24 b4bd
00000140: eab7 b23d afff 2cbd 36e2 aebd 64ba 5fbd
00000150: 95fa eb3d 9a85 9f3c 5fbb a8bd 5635 0a3e
00000160: 7a0d 243d 8d76 24bc 3183 fc3d 976b d63d
00000170: c8da 293b ee55 95bb 74f3 103e 7c0c 71bd
00000180: 72a6 f93d 78ed 273e 98a5 4f3d 04fd f9bd
00000190: 9950 0dbd 96c6 5dbd a853 24bd 5377 9abd
000001a0: 7fde 933d 68a1 f0bd 5c88 b7bd 2fba f7bc
000001b0: bd0b 173d 83eb 42be 38a3 9e3c e53f 3cbc
000001c0: fa72 a1bc 3198 17be 4033 89bd 81f9 b53d
000001d0: b116 6ebd 222b 94bd 26b3 c33d 6cea de3d
000001e0: b70c 4fbc 96db 06bd e026 11bd 573f 8d3d
000001f0: 650b 343d de00 cebd 8889 9abc 312b c0bd
00000200: 8c07 9cbd 77dc f0bd b49f 1b3d 8df3 e3bd
00000210: f064 983d e8e1 153c 5ccf 40bd 10ab 163d
00000220: 1d73 51bc 04ad 54be c0ee 003c 3a82 b63d
00000230: f44d 113d 8c76 b4bd 8c40 263d 6524 92bd
00000240: 7377 e8bc 0dfb 123d 4044 38bd 31f3 f5bd
00000250: 0d09 74bc 0fb8 47bd 92d4 a33d c739 c93c
00000260: 39c4 87bd 7e3b c53c 0a5e abbd 3357 d13d
00000270: dc3a 163e acd9 debd 7e7d e2bd a5ce 1d3c
00000280: b689 6a3c 16b0 c1bb b45f 61bd e071 df3b
00000290: 6afb 7fbd 3a5f 41be 9088 eebd c063 01be
000002a0: 53d8 823d 6583 eebc 2ec0 f1bd b82c b7bc
000002b0: 66bc d3bb 2a3b 5abd 0080 6bbc e0c5 75bd
000002c0: bc0a 1dbc 07ee 6d3c 164a bebd 6fa6 bebc
000002d0: 9fae 7a3d aebb 0bbd acde a0bd a651 2f3b
000002e0: 0273 b63d 12d4 ebbd 0f85 65bd a459 f93d
000002f0: 7309 8ebd 4cbe adbd 661c 86bd 3733 96bd
00000300: 3890 253d 8306 023e 37a3 0b3e a1cd c73c
00000310: e019 8c3d 3de1 8bbd 0b8a 6fbd 0f02 a13c
00000320: 9e3e 9fbd 029c afbd 6068 b0bd d989 023d
00000330: 25a9 f93d 9cff b73d 180e d53d 0456 5a3d
00000340: e509 063e 008f d33c 5ca5 64bc 8f3e fabd
00000350: 1bbf 2c3e 6e97 8a3d b48f 063e 30ed 9a3b
00000360: 5f05 253e 0060 963a 65c6 94bc 9573 c73d
00000370: 6de0 c43d 7afa 933d 6563 89bc 5170 a23b
00000380: e092 1ebd 2233 a73d a8a0 233d c693 f53c
00000390: 9003 313e d06d 17bd 7c6a c13d c4d8 8e3b
000003a0: fad1 163b 943c 1c3d 36de e13d a5e1 00be
000003b0: 30a8 863c 321d 8b3d 86bc 2c3e ae79 8abd
000003c0: 518e 093d 3c1b 4cbd 6869 c33d 5b7c 8fbd
000003d0: a032 3e3d 88c8 cfbc 4963 4bbd 161f cfbd
000003e0: b026 2d3e aafe 81bd 4821 90ba e86d c73d
000003f0: 20ba 293d e403 ae3d be80 293e f9fd 8ebb
0.0035640341 0.007024621 0.09540073 -0.08457449 0.02445034 0.14954567 -0.11278627 0.011433169
0.12912141 0.08259038 0.0010660093 0.059003264 -0.07060207 0.036975287 0.01029072 0.06835124
-0.05681348 0.1374584 -0.0544218 0.08852041 0.16345076 0.15201059 0.042681687 -0.036430806
0.12184435 0.13265152 0.037977096 -0.08205843 0.024261126 0.10083989 -0.13395636 -0.08950549
0.099732675 0.09853278 -0.05122732 -0.026700616 -0.07600163 -0.040230803 -0.11555741 0.047454044
0.12404829 -0.020909507 -0.0491439 -0.03452441 0.12886906 0.15910591 0.07713122 0.0053267777
0.12435083 0.04039394 -0.051117867 -0.11493853 0.0075803786 0.03573596 0.047184497 -0.089886665
0.0203351 0.025703663 -0.15782183 -0.05727148 0.06828878 -0.022891417 0.011088348 -0.065367535
0.110440604 0.039846342 -0.03316577 -0.0821394 0.16604593 0.044840787 -0.16021597 0.09148227
0.021323303 0.12372531 0.012100057 0.08339836 -0.05722613 0.005044853 -0.03316127 -0.08795999
0.08726485 -0.042236026 -0.0853924 -0.054621115 0.11522404 0.019472886 -0.08238863 0.13496909
0.040051915 -0.01003803 0.1232971 0.1046974 0.0025917757 -0.0045573628 0.1415537 -0.058849797
0.1218995 0.16399181 0.050695032 -0.12206462 -0.034500692 -0.054144464 -0.040118843 -0.075422905
0.07220172 -0.11749536 -0.08961555 -0.030240146 0.03687643 -0.19035153 0.019364938 -0.011489843
-0.019708145 -0.1480415 -0.06699228 0.0888548 -0.05812711 -0.072347894 0.09555654 0.10884556
-0.012637309 -0.032924257 -0.035437465 0.06896847 0.04395618 -0.10058759 -0.018864408 -0.09383238
-0.07618627 -0.117608 0.0379941 -0.11130438 0.07441127 0.0091480985 -0.047072753 0.03678423
-0.012783793 -0.20769125 0.007869422 0.089115575 0.035474733 -0.088116735 0.0405889 -0.07135848
-0.02837727 0.035883952 -0.044986963 -0.12009276 -0.014894736 -0.048759516 0.07999529 0.024563683
-0.066292234 0.02407622 -0.08367546 0.1022171 0.1467089 -0.10881361 -0.11059092 0.009631787
0.014315059 -0.0059108837 -0.05502291 0.006818995 -0.062495627 -0.18883982 -0.11647141 -0.12635708
0.06388917 -0.029115388 -0.118042335 -0.02236019 -0.006461668 -0.05327908 -0.014373779 -0.06000316
-0.009585079 0.014522082 -0.092914745 -0.023272721 0.061201688 -0.034114532 -0.07854971 0.0026751547
0.08908655 -0.115150586 -0.056035098 0.12175301 -0.06935396 -0.08483562 -0.06548385 -0.07333987
0.04042074 0.12697797 0.1363648 0.024390044 0.06840873 -0.0683007 -0.058481257 0.019654302
-0.07775615 -0.08574678 -0.08613658 0.031869743 0.12190465 0.089843005 0.10403079 0.053304687
0.13089712 0.025825024 -0.01395544 -0.12218963 0.16869776 0.06767164 0.13140756 0.004727982
0.1611533 0.0011472702 -0.018161008 0.097388424 0.09613118 0.07225509 -0.016771028 0.004957237
-0.03871429 0.0816405 0.039948136 0.02997769 0.17286515 -0.03696996 0.094441384 0.0043593366
0.002301334 0.03814371 0.110287115 -0.12586077 0.01643762 0.06792678 0.16868791 -0.0676149
0.03358299 -0.04983066 0.09541589 -0.07006141 0.046435 -0.025364175 -0.049655233 -0.10113351
0.1690929 -0.063474014 -0.0010996247 0.0973776 0.04143727 0.08496836 0.16553017 -0.004363772

lstm.weight_hh_l0 f4 [256, 64]
00000000: faf7 083c 0263 e63d a00c 093d 30ba 8fbd
00000010: 94f7 883d a370 31bd b20b 463c d98f 9cbd
00000020: 29ba 853c 6589 883d eb78 d6bb 1ed4 303d
00000030: 5229 613d 645c 85bd f26d 1dbe 0401 7a3b
00000040: 227d 44bc edb9 4ebb 17ad 0abb 59a5 b23d
00000050: c0ab 4e3d 4a89 ff3c 8899 f03d ce0d 9dbd
00000060: 5aa9 50bd 051c 91bd a0d2 f1bd 69f0 58bc
00000070: 46bf 5f3c 684c 0c3e 3b21 9cbc fee6 26bc
00000080: 17be bcbb 5398 05be 15da 0ebd 491d 863d
00000090: 8ce1 a13d c712 89bd eecd 46bd f277 d0bd
000000a0: 39f0 d63d f7ca 48bd 7b8c 18bd ff4b 053d
000000b0: 2c1b 1bbe b27a 87bd 7a91 f73c 95a0 84bc
000000c0: 0c60 35bd f425 843c 7982 cc3c 0e77 9a3d
000000d0: 828c efbb 98a9 11be 803c d1bc 906e 273b
000000e0: 2343 e3bc db68 b3bd 63b6 e23d 43a3 d53d
000000f0: 6548 073e e00c d5bc 8028 09be d0dd 1a3e
00000100: 5ab3 a2bd 3c29 9b3d f6e1 0c3e 79e7 cc3d
00000110: 974a 833c b966 05be 7471 543d db42 043e
00000120: 3587 00bd ae4f 1e3e 6d89 1fbc 574c 74bd
00000130: 2dd7 86bd 6a5b 683d 0e99 b4bb 31f2 1e3e
00000140: cd78 383d 4aa6 cebd ac0a 9b3d 218e a6bd
00000150: 05ba 853d 9e1b cb3d 0b8d 7c3c 93dc d5bd
00000160: ab4a 05be 4dec f0bd b1c2 05be 7952 73bd
00000170: c7b7 b03d f034 19be 976c a9bd 337a ac3d
00000180: 1eee 603d e0aa 183d 26c1 64bd 22be 2a3d
00000190: 520e 0ebe 1b9e eabd 85c9 f53d 66c7 15bd
000001a0: bde0 2dbd 6693 dcbd 07f6 3dbe 2b32 0fbd
000001b0: 57bc 88bd aee4 f8bd 62bc f83d 6961 3ebe
000001c0: ab84 38bd 7600 2ebd 674d 0ebc 35a1 3abd
000001d0: 66ee e7bd c032 62bd 4fe4 c73d cfcb b1bd
000001e0: 803a 0dbd 9293 30bd bad9 3bbd 86cc 23be
000001f0: 0378 083d 4168 6f3e 0670 203e e5ad a6bd
00000200: a330 af3d c2b4 ae3d 3de8 6cbd 22f8 bfbd
00000210: 3953 b2bd f52a bbbd d92b 033c 92f9 ed3d
00000220: 5054 9bbd 6440 15bd 8d04 8f3d d4d0 87bd
00000230: 9e0f 96bd 90e7 893d ae0b 2f3d a3d3 0cbe
00000240: 5298 d3bd 808a fabd c93c 273d dfe0 2abd
00000250: e029 e0bb eb16 dcbd e9d3 be3c 41ee ccbc
00000260: e950 2a3d 865a 9bbd afcb d33d 3d01 683c
00000270: 8457 0bbe e039 f5bc be8c 87bd ed2b dc3c
00000280: df1a c9bd 7480 aebd 7cac 18be a566 3cbc
00000290: ea3a f53d 7220 993d dc5d 32ba 02fa 173d
000002a0: 307d a8bc ca83 533d 146c b13d 8318 803d
000002b0: 79d6 c0bd 2d0f 613c 1f4a 213e 026c 093e
000002c0: 5f99 813c fb55 2cbc d2fe f1bd 04d6 adbd
000002d0: a9b6 bd3d eb28 d8bd 4a42 9c3d ff7b 9d3d
000002e0: 448f 9ebd 2c94 56bd 17a8 ff3d ee1c 9dbd
000002f0: c0a3 3d3d 6b84 dd3c ccef 32be 0463 e1bc
00000300: 0f08 133c 1985 a93d f5ab 0b3d 62a1 a6bd
00000310: 9f29 a83d c0cf 8cbc 1677 4bbd 000f c83c
00000320: 8d8a 45bd edd5 013e a1d7 b6bd e08a 043e
00000330: 7e1a 5fbd 965a 7e3d 5dcc d23d 841e 08be
00000340: 76ed e6bc 15bd 47bc 161c 1fbd 9836 1c3d
00000350: 3da6 9cbd 1a58 353d ca08 b0bd fbf0 313d
00000360: 3e10 343c 83a0 cf3d cb8c 24be b50b babd
00000370: a015 003d 7d3c 54bd 5767 5d3c c0fb ddbd
00000380: 7b4d 7dbd 4b6a 09bc 5100 63bd 4b63 123e
00000390: 1801 f1bd 02ac 0abe 0ffe 70bb ef49 1d3d
000003a0: 7eff b3bd 2e65 3abd 4673 bf3d 4e90 0b3e
000003b0: 1148 5e3d cf48 72bc 9c33 dc3c 3afb 383d
000003c0: 5682 fb3d b8be 0abe 0de9 a33b 41c2 07be
000003d0: 9024 8d3c 5c52 8fbd 6786 c73d 085b a9bd
000003e0: 830e 1e3d 47bc 17be d3af b8bd 14c6 05be
000003f0: 50e1 e5bd f7d7 4bbd c68a 2a3e bb76 b1bd
0.0083599035 0.11249353 0.033459306 -0.07017934 0.06687847 -0.04332031 0.012087749 -0.07644624
0.01632412 0.06666831 -0.0065451763 0.04317104 0.054971047 -0.06511763 -0.15373972 0.0038147578
-0.011992725 -0.0031543926 -0.0021160298 0.08722944 0.050456762 0.031193394 0.11748034 -0.07668649
-0.050942756 -0.070854224 -0.11807752 -0.013240912 0.013656443 0.13701022 -0.019058814 -0.010186909
-0.005759965 -0.13046388 -0.034875948 0.065485545 0.07904348 -0.066930346 -0.048536234 -0.10179128
0.104950376 -0.049021687 -0.037243348 0.03254318 -0.15147084 -0.06615199 0.030220736 -0.016189853
-0.04428105 0.016131379 0.024964558 0.07542239 -0.007310451 -0.14224851 -0.025541544 0.0025548078
-0.027741974 -0.08760234 0.11069944 0.1043153 0.1321121 -0.026007116 -0.13394356 0.15123677
-0.07944365 0.07576224 0.13758072 0.100050874 0.016026778 -0.13027467 0.05186601 0.12916128
-0.031378943 0.15460083 -0.009737355 -0.059643116 -0.0658401 0.056727804 -0.0055114096 0.15522076
0.04503708 -0.10090311 0.07570395 -0.08132578 0.06529621 0.09917377 0.015414487 -0.10442462
-0.13016765 -0.11763821 -0.1306255 -0.059404824 0.08628803 -0.149616 -0.08272665 0.08421745
0.054914586 0.037272334 -0.055848263 0.04168523 -0.1387265 -0.114559375 0.120013274 -0.036567114
-0.042450655 -0.107703015 -0.18550883 -0.034959953 -0.06676548 -0.12152992 0.12145306 -0.18591847
-0.045048397 -0.04248091 -0.008685446 -0.045563895 -0.11324768 -0.05522418 0.09760343 -0.086814515
-0.034479618 -0.043109484 -0.045861937 -0.15995988 0.033317577 0.23379613 0.15667734 -0.081386365
0.085541986 0.085305706 -0.057838667 -0.093734995 -0.0870728 -0.09139053 0.00800606 0.116198674
-0.07584441 -0.03643836 0.0698329 -0.06631628 -0.073271975 0.0673362 0.042735748 -0.13752608
-0.10331787 -0.12233448 0.040829454 -0.04171836 -0.0068409294 -0.10746559 0.023294406 -0.025015952
0.04158107 -0.07585625 0.10341584 0.0141604515 -0.13607603 -0.029934824 -0.06618641 0.026876414
-0.098195784 -0.08520594 -0.14909548 -0.011499082 0.119741276 0.074768916 -0.0006804147 0.03710366
-0.020567507 0.051639356 0.086631924 0.06254675 -0.094159074 0.013736528 0.15750931 0.13420108
0.015820203 -0.010518546 -0.11816181 -0.08488086 0.09263355 -0.105546795 0.07629831 0.07689666
-0.077421695 -0.0523874 0.124832325 -0.076715335 0.046298742 0.02704068 -0.17474288 -0.027513035
0.008974089 0.082773395 0.034099538 -0.0813625 0.082110636 -0.017188907 -0.049674116 0.024421215
-0.048227835 0.12679262 -0.08927847 0.12943602 -0.054468624 0.06209811 0.102928855 -0.13292891
-0.028189402 -0.012191077 -0.038845144 0.038138002 -0.07648895 0.044273473 -0.085954264 0.043442708
0.010990201 0.10138037 -0.16069333 -0.09084264 0.031270623 -0.0518155 0.013513408 -0.10839033
-0.06184147 -0.008387159 -0.055420224 0.1429569 -0.11767787 -0.13542178 -0.0036772524 0.038400587
-0.08788966 -0.04550665 0.093481585 0.13629267 0.054267947 -0.014787867 0.026880078 0.045161463
0.12280719 -0.13549316 0.005002147 -0.13257696 0.017229348 -0.06998131 0.09742432 -0.08269316
0.03858806 -0.14817916 -0.09017911 -0.13063842 -0.112246156 -0.049766507 0.166545 -0.08665224

lstm.bias_ih_l0 f4 [256]
00000000: d535 32bd ad77 673d 3148 ecbd 239d d83d
00000010: cd53 283e e249 723d 993e af3d be40 e0bd
00000020: 64b0 ec3d bec4 f63d e352 d4bd 5846 40bc
00000030: 8da0 16bd 07d8 2f3e 1bde 133e 53c4 b93d
00000040: 3ee6 a53c e819 9cbc 445a 83bd 0e2a cc3b
00000050: 32c8 db3c b45e b3bd 534b 7dbc 7935 f2bd
00000060: c92b 59bd c1ef 15bd 4237 b53d de11 d2ba
00000070: 5ac6 b4bd 88b5 d3bc f008 cebd 4143 f7bd
00000080: 1a04 e83d 8894 b83d f128 383e f6ac a0bd
00000090: 21f0 103e f185 893c f24a 6f3d 0116 44bd
000000a0: 713f 8e3d f7d0 8cbd 3b60 8d3d b196 ad3d
000000b0: 1676 f5bd 504f 1bbc 9b81 c5bd 1f5c 983d
000000c0: cb4c 1e3e 48c3 bd3d dcea 06bd 3764 f73d
000000d0: 5854 d43d 24a2 13be 3181 01bd 6adb ee3c
000000e0: 7c2b b4bd b1ab 803c 3f40 ce3d ca3e b63c
000000f0: ce8b f83d f386 7c3c fa87 313e 5841 0abb
00000100: 97fb d0bd df48 c6bc 22c9 60bd d763 8b3d
00000110: c652 b73d 52ef 62bc 6fb0 6dbd 4288 793d
00000120: 154e 053d 544f 9c3d ad2d 083e 29ba 843c
00000130: 2f06 d0bd 0919 db3d ba77 903c 3b2d a1bc
00000140: e2ed e03d 5d80 213d 1e50 a83d 7992 dd3c
00000150: 9566 823d aeb4 683d 950e 1abd d79c 4c3d
00000160: e126 90bd 8870 753d 3124 dfbd f624 d43d
00000170: 258f 8bbd db24 6abd d3c9 70bb 4997 833d
00000180: 4610 d5bc 0ff7 383d 8993 0ebc 17b6 ba3d
00000190: 4c4f 003d d549 3bbc 0e5b 92bc 8b9b 1abd
000001a0: a6f4 eb3d 50cf 9dbc 06d8 08bd ca0d 38bd
000001b0: 65aa 5f3d 3b40 1c3d 4d8e ad3b 9b64 32bd
000001c0: 3ad8 95bd e15a 933d e42b 963d 3ddb ac3d
000001d0: 857f 833c b9be fbbd 3434 e0bb 515c f3bc
000001e0: fbb4 03be 3d2d 893d 5d85 4e3d a8d5 c93b
000001f0: c691 38bd 8fbe adbd 51fb 933d 0e54 713d
00000200: 3699 0ebd 5e6a 87bd 35cf cd3c 566a 973d
00000210: 21c0 8d3d 969a 9a3d d1c6 f63c bdc6 c9bb
00000220: ed7b a23c de26 3ebd f08a 883c 5570 b63d
00000230: 8f1c fc3c 8f5b ae3d 370e 203d 7d8c 013e
00000240: 08b3 f53c 1c84 2fbd 84ad a0bd 323b 9e3b
00000250: 23c0 13bd 69d0 f1bc 1605 e1bc 2231 1cbe
00000260: cd12 943d fd24 42bd 16bc 00be f73b bcbd
00000270: 96ae 41bd ca85 df3c 42e1 023e 1e46 a7bc
00000280: 043e 5d3c ab36 c53c ea5f f33d 4ca5 ac3d
00000290: f113 393b 5fb7 c23d 467d 76bd 5708 fa3d
000002a0: 71ca 7abd 1338 cf3d 8269 a03d 2394 edbd
000002b0: a690 8ebd 6613 8ebc 84a8 1d3e c8d5 06bd
000002c0: 2f61 783c 452c 8cbc 1d27 c8bd 00d7 8bba
000002d0: 1e1c 6d3d ca7f 8dbd 5788 c63d 494b 0c3e
000002e0: 6f40 aebd 119c 7d3d 7a2e fabd f5cd d2bc
000002f0: 4185 f9bb 8128 4d3d 00dd 823d da60 613b
00000300: 8b1b c5bc 833f b13d fa24 613c da6b f63d
00000310: f374 023e 8308 1d3e 3fe5 9dbd f1f8 41bb
00000320: c67b a9bd 9915 2cbc a206 ff3c dd6c e23d
00000330: ebf7 ce3d d75e 303c 5b0e 6abd 8d81 c03d
00000340: a7f6 a7bd cd91 373d a06e d5bb 6db9 91bc
00000350: f871 1e3e 9b77 1dbe f38f 043e 61bd 32bd
00000360: a261 0fbe c1d8 ee3d 6f94 b0bd 39c3 0c3e
00000370: 00e2 003e 3eed 6b3d 65f0 e73d 6a34 283e
00000380: 6cde e53d d9cb 71bd 26ea 803c cd2a 993c
00000390: 1aa0 b7bd 55e6 0f3d 3b62 983c 2992 1b3e
000003a0: 70e5 8a3d 1b73 fc3c 4ac6 58bc a55e 6abd
000003b0: 41c4 b83d 8e22 babd ff3e 6a3d 50b2 d33c
000003c0: e1d5 043e dadd 01be 5c6e 903b 18a7 ef3d
000003d0: de50 c33d 171f a1bd 5ca8 4bbd 190e 0bbd
000003e0: f197 9dbd cb42 1d3e 4eca db3d 8f69 0fbd
000003f0: 9d98 dd3d 6ad6 d33d 9a89 133e e90a e93d
-0.04350837 0.056510616 -0.11537207 0.105768465 0.16438217 0.05915249 0.085568614 -0.109498486
0.11557081 0.12049244 -0.10367372 -0.011735521 -0.036774207 0.17172252 0.14440195 0.09070649
0.02025139 -0.019055322 -0.06413701 0.0062305992 0.026828859 -0.087582976 -0.015459853 -0.11826605
-0.053020272 -0.0366056 0.0884843 -0.0016027053 -0.08826895 -0.025843397 -0.100602984 -0.120733745
0.11328907 0.09012705 0.17984368 -0.0784549 0.14154102 0.016787501 0.058421083 -0.047872547
0.06945694 -0.068757944 0.0690312 0.08476008 -0.11985414 -0.009479359 -0.09643861 0.07439446
0.15458982 0.092657626 -0.032938823 0.12079661 0.1036765 -0.1441732 -0.031617347 0.02915736
-0.087973565 0.015706869 0.10070848 0.022246737 0.12136041 0.015413034 0.17337027 -0.0021096077
-0.10204237 -0.02420467 -0.054879315 0.06806152 0.08951335 -0.013851004 -0.05802959 0.06092096
0.032545168 0.07632318 0.13298674 0.01620205 -0.101574294 0.106981345 0.017635215 -0.019674888
0.109828725 0.039429057 0.08218406 0.027047383 0.06367222 0.056812935 -0.037611563 0.04995426
-0.070386656 0.05992177 -0.10895575 0.10358612 -0.06814412 -0.057164054 -0.003674139 0.0642534
-0.026008736 0.04515749 -0.008702167 0.09116762 0.031325623 -0.011431177 -0.017865684 -0.037745994
0.11521272 -0.019263893 -0.03340914 -0.044935025 0.05460586 0.038147192 0.0052965046 -0.043552976
-0.073166326 0.07195068 0.0733259 0.08440254 0.016052017 -0.12292237 -0.0068421606 -0.029707106
-0.12862007 0.06698082 0.050420154 0.006159503 -0.045060895 -0.08483612 0.07225669 0.05891805
-0.034814082 -0.06612085 0.025123218 0.07393329 0.06921411 0.07549016 0.0301241 -0.0061577247
0.019834483 -0.046423785 0.016667813 0.089081444 0.030775337 0.08513557 0.039076056 0.12651248
0.029992595 -0.0428506 -0.078455955 0.004828834 -0.036071908 -0.029518323 -0.027468245 -0.15253118
0.072301485 -0.047398556 -0.12571749 -0.09191125 -0.04728564 0.027285475 0.12781242 -0.020419177
0.013503555 0.02407392 0.118835285 0.084299654 0.0028240646 0.095076315 -0.060178064 0.12208622
-0.06122822 0.10118117 0.07832624 -0.116005205 -0.06961183 -0.017343234 0.15396315 -0.03291872
0.015159889 -0.017110953 -0.09773085 -0.0010668933 0.057888143 -0.069091395 0.096939735 0.13700594
-0.085083835 0.061916415 -0.12215896 -0.025732974 -0.007614762 0.050087456 0.06389809 0.0034390003
-0.024060985 0.08654692 0.013741726 0.1203229 0.12739925 0.15335278 -0.07709741 -0.0029597844
-0.08275561 -0.010503196 0.031131092 0.1105592 0.1010588 0.010764799 -0.057142597 0.0939971
-0.08201342 0.04481678 -0.0065134317 -0.017788613 0.15473163 -0.15377657 0.12945537 -0.043637637
-0.14002088 0.11662436 -0.086220615 0.13746347 0.12586212 0.0575993 0.113251485 0.16426244
0.11224064 -0.059032295 0.01573665 0.018697167 -0.08966084 0.03513177 0.018601527 0.15192474
0.06782043 0.030816605 -0.01323087 -0.057219166 0.090218075 -0.09088622 0.057188984 0.025841862
0.12972213 -0.12682286 0.004407687 0.117017925 0.095369086 -0.07867258 -0.049721107 -0.03394899
-0.07694996 0.15357511 0.10731946 -0.035012778 0.10820124 0.103436306 0.1440796 0.11379034

lstm.bias_hh_l0 f4 [256]
00000000: 4738 9e3d 7773 13bb 5b59 33bd 5536 583d
00000010: 1a10 d2bc 3b9d 2e3e d7c5 7dbd 3116 183d
00000020: 36c4 2cbd 91a2 f03c 0bfe 00bd f98d 80bd
00000030: b16b 403d 4748 913d e95c 62bd 6957 01bd
00000040: 4397 25bc 8530 2fbd 5cd0 243d 3668 03bd
00000050: 5baa c13d f14b 5fbd 6801 c4bd 63bd 4bbd
00000060: e500 32bc bc60 78bd 3477 0d3d 5a10 23bd
00000070: ffe0 4f3d 15ee f13d 2828 a13d 5969 8cbc
00000080: 3a77 c13d 3bef 213d adea c93b 8d38 083e
00000090: 82c7 c73d e71d 43bd fad5 4bbd 5742 c93c
000000a0: eb09 ad3d 459f a03d 33d2 a23d dd85 ecbd
000000b0: 5e9a ca3d e73a 8bbc 1b60 c43d 1f23 7abd
000000c0: 2a52 8cbd cfb4 20bd 1e7c 78bd 2485 213e
000000d0: d75e 693d 7cfc bfbd 3d70 823d 34da c2bd
000000e0: 4ddc ef3c 7593 c1bd 4da3 cabd a4fd 2b3d
000000f0: b658 1fbd 2ba3 203e 1a7c 143d 58b9 40bc
00000100: f945 eebd a3d8 ad3d f708 f4bd 6dc6 42bd
00000110: bfa5 6e3d 7095 493d 00c1 bbbd 0738 ac3d
00000120: f455 8c3c 01c1 1c3e ee09 55bc 6b00 4e3d
00000130: 2753 e43d de64 61bd a502 e8bd 9198 a13d
00000140: 5653 6fbd c048 d13d 691b 9a3d 7571 e63d
00000150: e33d cb3d 8fd6 b0bb db2d 05be da15 38bd
00000160: 4e33 323d e407 303d c29d 013e e565 083e
00000170: e74b c73d 5a3d 36bd 849c 023e 570e 7abd
00000180: 5f7b 9c3d 3d74 703d 88d5 d53d 75e9 f63d
00000190: 35a2 d0bd da18 b3bd 7d03 ec3d 1f5f 4cbd
000001a0: a677 abbd 4101 fe3d d0e1 893c 619f eb3d
000001b0: b623 61bb 76e0 fdbc dc6c 8b3d a565 ea3c
000001c0: 41a9 013d bf9e 7d3b 6083 f53d a3bb a3bd
000001d0: 6a48 03bb 8e44 743d ceda 383c 985c 24bd
000001e0: 7335 7ebd 013c 383d 8d7e 6cbd 2bb5 1f3d
000001f0: 321e d6bd 6675 b53d 3f6e 833d 3b1e 863d
00000200: ade4 ae3d 2640 febb 26cd e5bc 7463 983d
00000210: 8f9a f73d d228 08be 3c4b 3ebc 3ebc c93d
00000220: d0c0 1a3b c31c a5bb a316 df3c 21c0 c3bd
00000230: 5406 c8bd da67 0c3e 32ee a3bd 285f cfbd
00000240: 3e57 fabd 51cd e83c 146b 70bd f788 613d
00000250: bf7e 983d 255c cbbd 4508 f53c d587 1abd
00000260: b6ec 1f3a 863b 7c3c 51d0 75bd 4f33 eebd
00000270: cbf1 a23d caa8 073d e573 bcbd af5c 523d
00000280: 67d8 ab3d 5d85 e53d f129 983d 08a0 ff3d
00000290: 6d33 1cbe 1083 733d f2a8 863d 37b3 b2bb
000002a0: 4369 b93c 8919 a73d 0ef7 dfbd 4a67 503d
000002b0: 03a2 e8bd 0985 2a3c 1bc2 5bbd 520a 0cbe
000002c0: 7b7d 02be fd41 593d d7e6 81bd f2e2 ef3d
000002d0: 6e9d ae3d 52cd ffbd 4931 b73d e96d c3bc
000002e0: 798a 9d3d e777 e03b 49d4 c93c b863 0d3e
000002f0: e931 623d 214c 4a3d 77e9 d13c 25d4 06bd
00000300: 42f2 263e cde4 a2bd f879 b83d 3277 d43d
00000310: 416f bcbc 2d0c a73b 87b0 f23d 1a7d 1bbe
00000320: 9f78 52bd dc56 c3bc 8ec4 dcbc fd56 68bd
00000330: 747f 94bb 8903 87bd 5a53 53bc f735 e6bd
00000340: 09b6 8e3d 1bfa 7d3d 2e3c 87bd c842 3dbd
00000350: b906 c03d ad5e 80bd 4da4 8ebd 980f b2bd
00000360: 2e80 8dbc a0ad dcbd 298d 87bd 26a2 03bd
00000370: 4cb4 273e d465 3bbc 374f 9fbc af24 debc
00000380: b9ef 17bd 3bae b73d 341e 063d c36e 5ebd
00000390: 4e72 063e bb2a 29bd 690b e43c 6964 383e
000003a0: 2804 f83d eaa6 c2bb 6288 0f3c 5cf6 ab3d
000003b0: b5b8 5d3d cd8c d2bc af42 3ebd 5b76 6cbd
000003c0: b66c 0d3e 6dfe 1bbd 4b85 5fbd 28c8 6bbd
000003d0: ee7d dd3d 41d1 5cbd de28 abbd 8a58 aabb
000003e0: f610 e6bd 2dd2 013e 00c4 d23c 32eb 943d
000003f0: f73c 8ebd 9478 ab3d 56bf 703d 1b1b ca3d
0.07725578 -0.0022499242 -0.043786388 0.05278619 -0.025642443 0.17052166 -0.061956253 0.03713054
-0.04217931 0.029374393 -0.031492274 -0.06277079 0.046977703 0.07093864 -0.055264387 -0.0315775
-0.010106864 -0.04277088 0.04023777 -0.032081805 0.09456321 -0.054515783 -0.09570581 -0.04974116
-0.010864471 -0.060639128 0.03453751 -0.039810516 0.050751682 0.11812989 0.07868987 -0.017140077
0.09446569 0.03953479 0.0061620087 0.13302822 0.0975485 -0.04763594 -0.04976461 0.024567766
0.08449157 0.07842878 0.079502486 -0.1154897 0.098927245 -0.01699586 0.09588643 -0.06106865
-0.06851609 -0.039234933 -0.060665242 0.15773445 0.056975212 -0.093743294 0.06369064 -0.09514275
0.029279852 -0.09451953 -0.098944284 0.041989937 -0.03890296 0.15687244 0.036251165 -0.011762939
-0.1163444 0.08488586 -0.119157724 -0.047552515 0.058263537 0.04921478 -0.09167671 0.08409124
0.01713083 0.15308 -0.013002856 0.050293367 0.111486726 -0.055027835 -0.113286294 0.07890428
-0.058429085 0.10218954 0.07524759 0.11252109 0.09923913 -0.005396671 -0.13005774 -0.044942714
0.04350596 0.042976275 0.12657836 0.1332012 0.09731274 -0.044492103 0.12755018 -0.06104883
0.07640719 0.058704603 0.104411185 0.12056247 -0.101871885 -0.087449744 0.11524103 -0.049895402
-0.083724305 0.12402583 0.016831309 0.115050085 -0.003435356 -0.03099082 0.06807873 0.028612921
0.031655554 0.0038699356 0.119879484 -0.07994773 -0.0020032176 0.05963569 0.011282636 -0.040127367
-0.062062692 0.0449791 -0.057737876 0.038991135 -0.10454978 0.088602826 0.06417512 0.06548735
0.0853971 -0.007759112 -0.028051924 0.07440844 0.120900266 -0.13296822 -0.011614617 0.098503575
0.002361346 -0.005038829 0.027232474 -0.0955813 -0.09766832 0.13711491 -0.080044165 -0.101255715
-0.122236714 0.028418215 -0.058695868 0.05506226 0.0744605 -0.099296845 0.02991117 -0.037727196
0.00061006413 0.015395051 -0.06001312 -0.1163088 0.079562746 0.033119954 -0.09201793 0.05135792
0.08390885 0.11207078 0.07429875 0.124816954 -0.15253992 0.059451163 0.065751925 -0.005453493
0.0226332 0.08159167 -0.10935794 0.050879754 -0.11359026 0.010407695 -0.05365191 -0.13675812
-0.1274318 0.053041447 -0.06342857 0.11713208 0.08526121 -0.124903336 0.08944947 -0.02385612
0.07692427 0.006850231 0.024637358 0.13807571 0.05522338 0.04938901 0.02562402 -0.03291716
0.16303352 -0.079537965 0.09007639 0.10374297 -0.023002269 0.005097887 0.11850076 -0.15184441
-0.051384564 -0.023845129 -0.026949193 -0.056723583 -0.004531795 -0.06592471 -0.0128982905 -0.11240762
0.06968314 0.062006097 -0.06603275 -0.046206266 0.09376282 -0.06268058 -0.06964932 -0.086943805
-0.017273035 -0.10775304 -0.06618721 -0.03213706 0.16377372 -0.011437852 -0.019446952 -0.027117101
-0.03709385 0.08968779 0.032743648 -0.05430485 0.13129541 -0.041300517 0.027837472 0.18007053
0.12110168 -0.005940308 0.008760544 0.08396599 0.05413123 -0.025701905 -0.046450313 -0.05773006
0.13811001 -0.038084436 -0.054570477 -0.05756393 0.10815035 -0.053910498 -0.08357404 -0.005198543
-0.11233704 0.12677832 0.025728226 0.072714224 -0.06945222 0.08372608 0.058776222 0.09868451

lstm.weight_ih_l1 f4 [256, 64]
00000000: 55a7 e93d dd99 573d d222 a43d 08d5 15be
00000010: 9c08 363a dcfe 2abc f47f 823d 87c1 6dbd
00000020: b4b5 cbbd e914 b33c 06f0 10be c92e 13be
00000030: 5f18 813d c645 f63d f54c 7bbd d596 7cbd
00000040: 6079 20be fa3b e03d 22aa c23d 4802 9a3d
00000050: 097a e93c 9821 df3d 4db4 17bd 0073 21bd
00000060: b2c2 d33d 7cd0 853d 4f19 30be 1de0 663d
00000070: ea58 2b3d 95f9 dab9 7088 d83c 3b44 313e
00000080: a2ac 9e3d 070e 8abd b552 a5bd 06be 4ebd
00000090: 447f 083e 4701 c0bd cf5c c93d ec6a b03d
000000a0: 417d f2bb 9091 653c bb0b febd 7153 29be
000000b0: 0c06 b2bd 9c52 a83d 9688 0b3d a2e5 3bbd
000000c0: 33c9 e8bc 8f9d aa3b fda7 5b3d 2e57 003e
000000d0: e61c b9bc 973d bb3c ec3f 903d 3b97 df3d
000000e0: c05b 80bd 63e4 c03d 5086 82bd f384 193d
000000f0: a6a0 c4bc 23e5 bbbd 993b c1bd 5c54 fd3c
00000100: 5762 bcbd caf2 9cbd 6a39 53bd 134a 1c3d
00000110: 61fa 773d 0bbe 25bd b00a 663c 0c2d 393d
00000120: 5de7 333d 8557 01bd 9b96 0bbe 97de 883d
00000130: b31f 003e 5c13 3e3c acba 4d3d c58b e13d
00000140: f584 24bd 4a08 85bd 4f26 b8bd ab63 603d
00000150: 0a88 0c3d b4e3 08be e597 023e 4e69 1dbe
00000160: 3d4e 24be df57 19bd 1cba 28bd a011 173e
00000170: 136f ab3c c5ec fb3d c6c8 f03d 22d5 b2bd
00000180: 6a2c bebd c415 a5bc 23e5 9f3d c1cc 9b3d
00000190: 06a9 a23d 044f 3ebd c99b 513d 9c56 6bbd
000001a0: 7a27 febb 3f67 19be 3b03 1d3e 05b2 b5bd
000001b0: c12c 77bd 4f37 f1bc 7c97 fc3d 27e4 3ebd
000001c0: c29e 30bd 4234 17bc 42da 1e3d 2440 8ebd
000001d0: 65ac bd3a c2e7 7c3d 5da5 11bd 4676 ec3d
000001e0: f979 133e 460b 40bd 261f 083d 3434 c5bc
000001f0: e00b c33d 83e9 8f3d 346b f43d d846 953c
00000200: a0e6 89bd 9a99 b43d 0ae4 913d da35 92bb
00000210: d8de fe3a 2fa1 db3d 04a2 d3bd 89f9 84bd
00000220: 9745 3cbe 429f 5bbd 77f9 01be 9d51 b2bc
00000230: 6b97 93bd 94d9 e5bd ad6a fe3d 616e 56bd
00000240: b30c f9bc d6ef 473d 1faa 3a3d ff7d 47bc
00000250: 0cb6 9c3d fb3a 253d c99e 7ebd 584d d5bd
00000260: 5985 f0bd 4881 52bd da0f 52bd def8 c03c
00000270: 851a a43c 47a1 d43b 4212 873d f862 04bc
00000280: 881b b6bd 1025 26bd d8a7 dcbc 0960 85bd
00000290: 74ed 84b8 1ae5 783d 0b9c 8f3c bf32 a3bd
000002a0: 2581 62bd bff9 ebbd 59b5 a93d c9d6 343c
000002b0: ef26 8fbc 3eef 32be c71b 073c d796 2c3c
000002c0: 9ba0 7a3d 04ed d73c f063 07bd 6b1c e93c
000002d0: 9652 d23d fa01 89bd 2e9c ab3d c545 a83d
000002e0: 011a c3bd 0872 f9bc 0bc3 2e3e aaf0 ae3d
000002f0: c6c0 893d b1a2 af3d 23e7 a0bd d841 1e3e
00000300: 8033 923d fa01 ee3d b72b fdbd 33c6 0e3d
00000310: 87ad f83d 1386 b03d ef2a cebd 241a 08bd
00000320: 52a6 64bd 5d39 02be e08f c4bc 6c2f 1e3e
00000330: b472 b93c dccc a13d 2db6 133d 3b84 633d
00000340: 46d1 88bc 45ac db3d 808c 92bb e494 19bd
00000350: d5ac f5bc 968c c7bd b7f0 8b3d 062b edbc
00000360: d432 1cbe 246f 4e3d 3e5e fb3d 84bd 063e
00000370: 5c63 99bd f80f 2bbd ed5a f73d f1ba 9e3d
00000380: 31cc febd 83d4 27bd 6b6d c33c 4bcf e9bd
00000390: 1924 e9bd fb90 8f3d 85e7 513e 42c1 a83d
000003a0: 2f0f 0c3c b2e7 2a3d 23e9 4a3d 2efc da3d
000003b0: 75ee 763c 206c 473d 5144 8dbb f68a 05bd
000003c0: 4f44 d1bd a6c1 d5bd 6986 1cbd 27dd 693a
000003d0: a17a 61bd 83a1 ac3c 22e2 b5bd 806a f43c
000003e0: e3f7 89bd f5b8 183d 628d f03d 3c74 cabb
000003f0: b3e8 a038 c23a a4bb e7d2 60be ddf6 e3bc
0.11408869 0.05263697 0.08014454 -0.14632046 0.0006944032 -0.01043674 0.06372061 -0.05804589
-0.099467665 0.021860557 -0.14154062 -0.14373316 0.063034765 0.12025027 -0.06135269 -0.061667282
-0.15671301 0.109489396 0.095051065 0.07519966 0.028500574 0.108950794 -0.037037183 -0.039416313
0.103398696 0.06533906 -0.17197154 0.056366075 0.041832842 -0.00041766153 0.026432246 0.17311184
0.07747771 -0.06740957 -0.08072416 -0.05047419 0.13329798 -0.09375244 0.09832155 0.08614144
-0.0074001853 0.014011756 -0.12404581 -0.16535737 -0.086925596 0.082188815 0.034065805 -0.04587329
-0.028416252 0.0052067707 0.053627003 0.12533256 -0.022596788 0.022856517 0.07043442 0.10917517
-0.062675 0.09418561 -0.06373274 0.037480306 -0.024002384 -0.09174564 -0.094351955 0.030924015
-0.09198444 -0.07663496 -0.051568426 0.03815658 0.060541514 -0.040464442 0.014040634 0.045208976
0.043921817 -0.031577606 -0.1363167 0.06683081 0.12512092 0.011601295 0.050226852 0.11012987
-0.04016586 -0.06495722 -0.08991682 0.05478255 0.034309424 -0.13368112 0.12753256 -0.15372202
-0.1604547 -0.037437316 -0.041193113 0.14752817 0.020926988 0.123010196 0.117570445 -0.08732058
-0.09285815 -0.02015198 0.07807376 0.07607413 0.07942395 -0.046462074 0.05117396 -0.057455644
-0.007756171 -0.14980792 0.15333264 -0.08871845 -0.060345415 -0.029445319 0.12333581 -0.0466043
-0.043120153 -0.009228768 0.038782366 -0.069458276 0.0014470933 0.06174446 -0.035558093 0.11545996
0.14401998 -0.04688575 0.03323283 -0.024072744 0.09523749 0.07026961 0.1193451 0.018222257
-0.06733441 0.0881836 0.07123573 -0.004461986 0.0019445075 0.10724103 -0.103336364 -0.064929076
-0.18385921 -0.053618677 -0.1269282 -0.021767432 -0.07206615 -0.1122314 0.124226905 -0.05235136
-0.030401563 0.04881271 0.045572396 -0.012176036 0.0765191 0.04033945 -0.062163148 -0.10415143
-0.11744184 -0.051392823 -0.05128465 0.02355617 0.020032177 0.0064889523 0.06595279 -0.008080237
-0.0889197 -0.04056269 -0.026935503 -0.06512458 -6.3384796e-05 0.060765363 0.017530462 -0.079686634
-0.055298943 -0.11522245 0.082865424 0.011037537 -0.01747462 -0.17474076 0.008246369 0.01053401
0.06118832 0.026358135 -0.033054292 0.028455934 0.10269658 -0.0668983 0.08379398 0.082164325
-0.09526444 -0.030449882 0.1706659 0.08541997 0.06726222 0.08575953 -0.07856586 0.15454805
0.07138729 0.11621471 -0.123618536 0.034856986 0.12142473 0.08619323 -0.10066783 -0.033228055
-0.055822678 -0.12717195 -0.023994386 0.15447778 0.022637703 0.07900402 0.03606241 0.055546027
-0.016701352 0.10726217 -0.0044723153 -0.03749551 -0.02998964 -0.097436115 0.06833022 -0.02895118
-0.15253764 0.05039896 0.12273835 0.13158232 -0.074896544 -0.041763276 0.120778896 0.077505
-0.1244129 -0.04097415 0.023855885 -0.11416491 -0.11383838 0.07010075 0.20498474 0.08239986
0.008548542 0.041724868 0.049538743 0.10692631 0.015071501 0.0486871 -0.0043111225 -0.032603227
-0.10218107 -0.10437326 -0.03821412 0.0008921199 -0.05504859 0.021073109 -0.08881022 0.02983594
-0.06736734 0.037285764 0.11745717 -0.006178407 7.672738e-05 -0.0050118873 -0.21955453 -0.027827675

lstm.weight_hh_l1 f4 [256, 64]
00000000: 0e43 29bd be11 93bc 91ce 043e 4427 2fbd
00000010: c05b 1bbd 495b c6bb 9c59 ce3d 2f83 b0bc
00000020: 1d04 b03c d20a 23bd 623a 14bd a6e8 28be
00000030: a52f bb3d 01d3 08be ae82 4d3d 0a84 a43d
00000040: e587 b2bd 317d 01bd 96b5 39bd c9a7 23be
00000050: e7b8 9f3d 674f be3c de25 c23b 0473 873c
00000060: aa8e 25bd 66f5 633d a554 103d 4cc9 873c
00000070: c93d 53bc c84c e33d b02a 803d d6e5 083d
00000080: 4365 81bd 216d b03d 058a ad3d aa20 7e3d
00000090: 76ff cdbd 9fed 4dbd 01c4 85bb 13ef 28bd
000000a0: 647a 983d f02a 92bd 282d c339 f88a bc3c
000000b0: 4aad 8abb cbf2 293b 1e8a 98bd c4c8 c6bd
000000c0: ff51 d3bd 7e83 eebd 8635 d4bc 4e81 be39
000000d0: 9572 0fbe 7a73 2f3b 47c6 b2bd abe2 0dbe
000000e0: 5610 bfbd a710 073d d20a f8bd 6e3e 28bb
000000f0: 17fe 98bd 90fc 8b3d b5ff fabc c35d 003d
00000100: 39f0 bebd 3f79 f2bd 0e5c d83d 807d 91bd
00000110: 6ee5 2b3e 4fb7 1d3d ea5b 173c fd6c 083d
00000120: b58e 1e3d 8a23 05be 9d73 de3d f9bc 493d
00000130: 7bd0 69bd 7ef1 b03d fe71 c53d ecf0 08be
00000140: b73d 15be 8490 6fbc 7e63 d9bd 0c1a babc
00000150: 31c0 2e3d 5d88 1e3e 4b79 b83d b802 05be
00000160: 8d0a 0fbd fb28 72be 2c45 3dbd 5ed7 1e3e
00000170: 9fe7 153d 559d 7ebc e0ef 5f3b 31c9 8f3d
00000180: cdc5 053e 399c 1d3e b05f aebd 6243 87bc
00000190: ccda 8ebd 0649 c53b f248 553d c60e 9dbd
000001a0: d57c fdbb ed80 08be 1501 a5bc 8bb4 a23d
000001b0: a59c 46bd 2c49 5fbc 9236 68bd 2eaf cf3d
000001c0: 1238 293d 3fcf e4bd 4872 4c3b 14d4 75bb
000001d0: d67d 0cbd d648 4d3d d91c 74bd 60fb 893d
000001e0: 2843 523e 1296 1abc 2df6 9abd e80e aa3d
000001f0: 2b1d b33d 8c94 963d 1747 643e 4871 fdbc
00000200: 25aa 0f3d 9135 33bc 6419 0d3e e773 07bd
00000210: 6426 e9bc 7f77 2b3d 5ba3 f13d fa43 d53d
00000220: 2fa0 c53d 61ed a8bc 1a5a bf3d 01ba a63c
00000230: 501a 4b3d 62f1 cb3d 017a 013e 8957 7dbd
00000240: 7f7b f7bd 241d 04be 8c15 313c a0a4 0ebe
00000250: eda9 07bd c2d5 a03d 9453 e43d b839 24be
00000260: 537e 0a3c 1811 39be 0faf ab3d 778f 2d3b
00000270: 9b65 c7bd c82b 0cbc c4b6 93bc eba8 1bbd
00000280: 4c16 ff3c abdc 45bc d6c4 ccbd f26e 123d
00000290: 5458 853d 8684 33ba 78f9 a2bd 1a51 b63b
000002a0: 8c5f 3abd b025 d5bc b7e0 053e 4274 a63a
000002b0: 9f0b efbb bdf4 eebd 8b0e 4abc 1e95 8e3d
000002c0: f4dc fbbc 5546 953b c34e f03d 0019 61bd
000002d0: 721d 353c f6f6 783c 14c9 9ebd e08e 5bbd
000002e0: 073d eebc c3b5 583c 4e13 903d 80f4 fe3c
000002f0: 88c0 be3c 6e81 803d fba0 9b3d 5d3a 9dbc
00000300: 9fa6 fe3c 6722 b5bb b5a5 0d3e bdef a03d
00000310: bb93 c73d 95d3 81bd 234e 5b3d f36b f4bc
00000320: 5b81 aabc a26a 313d 1c15 f3bd 9765 68bd
00000330: 0c83 1abd f902 8f3d ab91 fe3d 542d 9abd
00000340: 4686 e1bd b27b bb3d cf14 0f3d 162d c5bd
00000350: 6b1a 833d 176b a9bb c2bb 75bd ec73 ef3d
00000360: 5311 123e facc 973d a6fb 9dbd 64f5 59bd
00000370: 1b19 2d3d 8217 47bc 79dc c1bc f0ba 933c
00000380: 4ca6 a1bd 9f13 d33d 4e03 aa3d 6add e33d
00000390: b403 96bd 42a3 10bd df69 09bd c41f a73d
000003a0: f882 6e3d 1b2a 39bd fdb8 d9bb 716f 933c
000003b0: 552b 053d 555d bcbc b5b8 f43c 1fda 183d
000003c0: 8e70 463d 63bd 9a38 8c18 c5bc b362 f2bd
000003d0: d865 f7bd d03c f93d 5740 073d 73f5 b03d
000003e0: c703 f1bb 10ca 0f3e c1dd d8bd 4ca2 3abd
000003f0: 65d9 c1bd 6484 8a3d dc58 c9bc b670 08bc
-0.041323714 -0.017952796 0.12969424 -0.042762056 -0.037929296 -0.0060533625 0.100756854 -0.021546928
0.021486336 -0.03980524 -0.03618849 -0.16494998 0.09139947 -0.13361742 0.050173454 0.08032997
-0.08717326 -0.031613532 -0.04533919 -0.15981974 0.07798939 0.023231221 0.0059249243 0.016534336
-0.04041926 0.055653952 0.035236973 0.016575478 -0.012893149 0.11098629 0.06258142 0.033422314
-0.06318142 0.08614565 0.08473591 0.06204287 -0.10058491 -0.05027544 -0.0040822034 -0.041243624
0.07445219 -0.07137096 0.00037226942 0.023015484 -0.0042320834 0.002593207 -0.07448219 -0.09706262
-0.10318374 -0.11646174 -0.025904428 0.00036335964 -0.14008553 0.002677171 -0.08729225 -0.13855998
-0.09329288 0.032974865 -0.12111439 -0.0025671977 -0.07470339 0.06835282 -0.030639509 0.03133942
-0.093231626 -0.11839532 0.10564433 -0.07104015 0.16786739 0.038504895 0.009238223 0.033307064
0.038710315 -0.13001838 0.10861895 0.049252484 -0.057083588 0.08639811 0.09640883 -0.13373154
-0.14574324 -0.014621858 -0.1061468 -0.022717498 0.042663757 0.15481706 0.0900751 -0.12989318
-0.03492217 -0.23648445 -0.046208546 0.15511844 0.036597844 -0.015540441 0.0034170076 0.07020796
0.13063736 0.15391625 -0.08514345 -0.016511623 -0.06975326 0.006020668 0.05207152 -0.076688334
-0.0077358284 -0.13330431 -0.020142118 0.07944592 -0.04848923 -0.013628285 -0.056692667 0.10140835
0.04131324 -0.111723416 0.0031196047 -0.0037510442 -0.034299694 0.05011829 -0.059597824 0.06737399
0.2053343 -0.009435194 -0.075664856 0.083036244 0.08745798 0.07352552 0.22292744 -0.030937806
0.03507437 -0.010938064 0.13779217 -0.033069517 -0.028460689 0.041862007 0.11798736 0.10413356
0.09649693 -0.020621004 0.093433574 0.020352365 0.04958564 0.099581495 0.12644197 -0.06185106
-0.12084102 -0.12901741 0.01080836 -0.13929987 -0.03312104 0.07853271 0.11148754 -0.16037643
0.00845297 -0.18072927 0.08382999 0.0026483217 -0.097361766 -0.00855536 -0.018031485 -0.03800289
0.031138562 -0.012076537 -0.09998481 0.035750337 0.06510988 -0.00068480556 -0.07957739 0.0055638673
-0.045501277 -0.026018947 0.13074003 0.0012699442 -0.0072950865 -0.11667774 -0.012332569 0.069620356
-0.030745007 0.0045555034 0.117337726 -0.054955482 0.011054384 0.015195599 -0.07753196 -0.053603053
-0.029081834 0.013226929 0.07034932 0.031122446 0.023285165 0.06274687 0.07599064 -0.019192869
0.03108531 -0.0055277827 0.13832743 0.078582264 0.09744974 -0.06339184 0.053541314 -0.02983663
-0.020813635 0.043314584 -0.11869261 -0.05673751 -0.037722632 0.06982989 0.12430128 -0.07528177
-0.11011939 0.091544524 0.034931954 -0.0962774 0.06401523 -0.005170237 -0.059993513 0.11692032
0.14264421 0.07412143 -0.07714014 -0.05321254 0.04226027 -0.012151601 -0.0236647 0.018033475
-0.07893047 0.10306477 0.083014116 0.11126216 -0.07324925 -0.035311945 -0.033548232 0.08160356
0.05823037 -0.04520617 -0.006644367 0.017997475 0.032512028 -0.022993723 0.029873231 0.03731739
0.048447184 7.378568e-05 -0.024059556 -0.11835232 -0.12079972 0.12169802 0.033020344 0.08640566
-0.0073551866 0.14041924 -0.10589171 -0.045564935 -0.09465293 0.06763533 -0.024578504 -0.008327654

lstm.bias_ih_l1 f4 [256]
00000000: c962 bc3d 7067 943d a76c 83bd 7d14 0fbd
00000010: dc6b bd3d a500 8e3d dfae 5ebd 9cf3 95bd
00000020: c4c2 813d fd77 7a3d 88bd 443d afa8 5dbc
00000030: 8cb8 1a3e 6151 aabc d6ab 1d3e 61c8 f73a
00000040: 5013 dc3d 6ba7 d6bd e5e1 b43d 9a73 4cbc
00000050: 595f 7f3d 9e09 f93d b3c3 a83d 3374 6bbd
00000060: 7d2f 7d3d 0f60 16bd 372a 153d fe77 493e
00000070: 72c6 82bd 6f0e b53c 59ed c43d dd79 86b9
00000080: 3536 1c3e 8ff5 093e 9627 a93d 6d34 abbc
00000090: 2ce0 843d 0386 55bc edee 9cbd c21e 093e
000000a0: 39d6 1abd ae8b 3c3d 5ded cebc 512a a7bd
000000b0: 592b 463e 2add fbbc 395c 1fbc 8e17 aabc
000000c0: b298 023d 2d4f e33d 5f56 e03d 28db 1e3c
000000d0: 9431 92bd 99b8 4dbd 5f67 f03c 49c1 993c
000000e0: 5fbc 813d c9d7 92bc 80b4 5d3d 0e16 cb3b
000000f0: 1999 e93c bed2 1b3e e89f 223e c403 953d
00000100: 533c b63d 02a8 ba3d ef3f cc3d 7826 463d
00000110: 6047 153c a4fa 463d 5565 d73d c8d2 0e3e
00000120: 17f2 81bd c72c ecbc 5720 cc3d eac3 63bd
00000130: b919 953c b6d6 e2bd 4e89 ab3d 6f31 41bd
00000140: 4f58 75bd 3b6d d93c 3f02 ab3d 70e4 1abd
00000150: bb25 123d 4f92 e03d ce41 973d 008d 3e3d
00000160: 996c 043e 4b92 2c3d 4cfc 17bc ea94 59bd
00000170: 9257 85bd 21eb 9bbc ee5a a93c d6de 233e
00000180: e148 8cbc 24ee 973d 9d9a 8bbd 94b4 08bd
00000190: 966f c73d e38c 4c3d e7ae e83d f366 a33d
000001a0: 6c42 693d 4b80 4a3d 9898 e0bc a578 1d3e
000001b0: 37b1 493d b559 6b3d b550 9dbc 0758 81bd
000001c0: 6bbb f63d 6339 b33c dfb5 d83d a6b6 2abd
000001d0: 9b42 043e d1fd 353d 01b8 093e 519e d83c
000001e0: 8e3d 113e 3c13 18bd 3b83 38bd de4f 78bd
000001f0: daa1 9c3d d0e1 0e3e ad9b 3fbd 59b0 93bb
00000200: 323b c5bd ab7b e33d 4f5e 6cbb 9f03 d5bd
00000210: e98c 033e a391 4e3d d748 09be 9ff0 923d
00000220: e675 943d 10db 4abc efb5 3fbd 63ac 8cbd
00000230: 16a2 e33d 3fa8 ea3d 8f87 03be 12c5 a9bd
00000240: 8927 b2bd 100e 56bd 5911 493c 0a50 a33d
00000250: b75d f7bd 49c6 cf3d 1553 093d 05d7 38bd
00000260: 4bf9 903c 8ca5 28bd f599 873d 179c 2f3d
00000270: 4ea7 943c beb5 473c e6bb fbbc 1cc6 393d
00000280: 1135 3dbd 40dd 89bb 5cad 57bd f76b 1bbd
00000290: 7f09 b53d 719e 3d3d 474e 52bd 74eb abbd
000002a0: 4e3f abbb b2b1 033d aaba 81bd fb7d d13d
000002b0: 05c8 633c 7142 02bc 96d1 8b3c 70cc 37bb
000002c0: d9cf ae3d 4665 9fbb 07bf 75bd 2464 d33d
000002d0: 047d 08be e0ef 043e 3670 bbbd b462 7d3d
000002e0: a10a 183d 6116 263c 161b aebc 654c 80bd
000002f0: 213a 7abd 552b bbbd 9d69 f63d 979a 20bd
00000300: 93c6 9f3c 0906 3a3e 5117 843d 2d9b 153d
00000310: 6701 313a b21b 57bd f00f 123e cb3d 293e
00000320: c837 3a3d 174c 90bc 5370 d6bd ce93 1fbd
00000330: 0010 303e b880 333d 8dfd d33d feaf 793d
00000340: fc38 143e 130f 083d 0137 713d 4af9 933d
00000350: 454e 1f3e cb32 823c 8ec1 f33c 9035 b53d
00000360: 0e01 cb3c 3918 8c3d b12e 903d 92f3 9739
00000370: d416 183e 3747 0e3e ab35 153d bd4d 71bd
00000380: 800e eb3d 4c39 2c3d 3e31 a0bc 8ccf 0d3e
00000390: 61be 4abd 6584 303e 5e1b 113e 278b 433e
000003a0: 4603 5f3e af57 413e 68d7 023c 3134 f03c
000003b0: 7b63 393e 1874 3c3d 9068 0a3e 42d0 1b3e
000003c0: 960a b6bb e2c5 a7ba 1a7f 183e 9c9c 233c
000003d0: 49b1 bd3c 8de5 87bd cb1b 503c e034 ad3c
000003e0: 1059 433e ac94 4e3d 0cba 163e 108c a6bc
000003f0: e46a 403d 6ff1 36bd 3fce 2a3e 51df 2d3e
0.09198529 0.07246292 -0.06417208 -0.03493165 0.09249088 0.06933717 -0.05436599 -0.073218554
0.06335977 0.061149586 0.048032314 -0.013528987 0.15109462 -0.020790758 0.15397581 0.0018904322
0.10745871 -0.10481151 0.088321485 -0.012478733 0.06234679 0.121600375 0.08240452 -0.057483863
0.061812866 -0.036712702 0.036417212 0.1967468 -0.06385507 0.022101609 0.09615583 -0.00025649267
0.15255053 0.1347258 0.082595035 -0.020899022 0.0648807 -0.013032439 -0.07662759 0.1339064
-0.037801955 0.046031646 -0.025259668 -0.08162368 0.19352473 -0.030745108 -0.009726577 -0.020763185
0.031883903 0.11099086 0.10953974 0.009695806 -0.071383625 -0.050224874 0.029346166 0.018768923
0.06334757 -0.01792516 0.054127216 0.0061976975 0.028515385 0.1521711 0.15881312 0.07276109
0.08898225 0.09114076 0.09973132 0.04837653 0.009111255 0.048578873 0.105173744 0.13947594
-0.06345003 -0.028829945 0.09967106 -0.05560676 0.018200742 -0.11076109 0.08375798 -0.047166284
-0.05989867 0.026541343 0.08350038 -0.03781551 0.035680514 0.10965406 0.07385598 0.046521187
0.12932052 0.042131703 -0.009276461 -0.05312053 -0.06510843 -0.019033017 0.020673241 0.16002974
-0.017124595 0.074184686 -0.068165995 -0.033375338 0.0973808 0.049939048 0.11361485 0.079786204
0.05694811 0.049438756 -0.027416512 0.15378053 0.04924127 0.0574586 -0.019203523 -0.06315618
0.12047466 0.02187795 0.10581564 -0.041678093 0.12916033 0.04443151 0.13449098 0.026442679
0.14183637 -0.03712772 -0.045047026 -0.060623042 0.07648058 0.13953328 -0.046779323 -0.0045071063
-0.09630431 0.11107572 -0.0036066954 -0.10401081 0.12846722 0.05043186 -0.13406692 0.07174801
0.0724905 -0.01238133 -0.046804365 -0.06868818 0.111149 0.11457872 -0.1284468 -0.08289541
-0.08698947 -0.052259505 0.012272202 0.079742506 -0.120784216 0.10145242 0.0335265 -0.045126934
0.017696997 -0.041173503 0.06621162 0.04287347 0.018146183 0.012189327 -0.030729245 0.045354947
-0.046193186 -0.0042072833 -0.052655563 -0.03794476 0.08839702 0.04629368 -0.051344182 -0.083945185
-0.0052260524 0.032151885 -0.063344315 0.10229107 0.013902669 -0.007950411 0.017067712 -0.0028045438
0.085357375 -0.0048643677 -0.05999663 0.10321835 -0.1332894 0.1298213 -0.09152262 0.06186171
0.03711951 0.0101371715 -0.02125315 -0.06264571 -0.061090592 -0.09139124 0.12031863 -0.03920993
0.019503867 0.18166365 0.0644976 0.03652494 0.0006752223 -0.052516647 0.14263892 0.16527478
0.045463353 -0.017614407 -0.10470643 -0.038959317 0.17193604 0.043823928 0.10351095 0.060958855
0.14474863 0.0332175 0.058890346 0.072252825 0.15557201 0.01589336 0.02975538 0.08848107
0.024780776 0.068405576 0.07040156 0.00028982438 0.14852458 0.13894354 0.036428135 -0.058912028
0.11477375 0.04204683 -0.01955473 0.13848704 -0.049497966 0.17238005 0.14170596 0.19096051
0.21778592 0.18881105 0.007985927 0.029321762 0.18104355 0.046009153 0.1351645 0.15216163
-0.005555461 -0.0012800063 0.14892235 0.009986069 0.023155825 -0.0663558 0.012701939 0.021143377
0.19076943 0.050434753 0.14719409 -0.020330459 0.04697694 -0.044663843 0.16680239 0.1697972

lstm.bias_hh_l1 f4 [256]
00000000: c3b5 3a3d 5761 0d3e 2dae f33c 009f ad3d
00000010: ce75 30bd 7720 08bd b8f5 1b3d 28cb febc
00000020: c960 1c3d cdce 6b3d c232 0a3d ece8 b33d
00000030: 331b 813d 93f1 ad3d d45d e93d edf9 07bd
00000040: c01a 92bb 7dc3 da3d fbcd 303c 8977 693d
00000050: f6de 303e 023f 293e cb0a 36bd f425 243e
00000060: 46a4 1b3e 5e97 463e b170 c3bb c7a0 d23d
00000070: 121f e63c 8532 acbc 59b3 5e3d b1e4 b5bc
00000080: 8ca6 e13d 2753 9a3d 358d 553d f5b1 033e
00000090: df83 bcbd 4a4d 70bd 014d a83d 54be 633d
000000a0: 6df4 a63d 58e8 20bd 07b1 28bc 55ad b2bd
000000b0: 246c b43d bbd1 a63d 9c22 a5bd e5bc fabc
000000c0: 84fc 19bd d0e3 733d a9e3 f33d f560 91bc
000000d0: a289 9ebd f5d5 d63d cdf3 1d3d 3a46 cd3c
000000e0: da03 873d 7e50 27bd 3d68 a1bd f823 3cbd
000000f0: e310 963c baa7 013e 8cd8 193e 7bc6 5cbd
00000100: b6b2 803d 3977 043e 2adf 273d 1641 863d
00000110: 331f 42bd 7eff cebc aa29 27bc 86dc 1d3e
00000120: c4f9 20bd f649 0f3d 8106 c2bc 78e9 c23d
00000130: 86cc 123e 0e29 fa3d c237 b4bd a300 e43c
00000140: ea92 8cbd 7b82 913d 8ef5 063e 022e 4bbd
00000150: fd13 063e 08d7 53bd d6f5 d63d 82f9 8ebd
00000160: f7c8 1a3e d52a 8d3c 98fd a2bc 10c3 f13d
00000170: c209 e73d d0fc a13d b518 8e3c f669 693d
00000180: 42ad da3d 2c49 603d 0e49 9c3d a86e 223a
00000190: 9c24 e43d 1041 ab3d b9f9 253d b409 c6bc
000001a0: 5672 eb3a eb4e 60bd fd96 b23c f584 303d
000001b0: 57ff 3abd f8d6 87bd 9659 773d 1f13 b93d
000001c0: f16f c03d 6f05 1d3d f4f1 1a3d 3e6b d1bd
000001d0: 453e 0d3e a788 c5bd 5271 4c3d 373f 523a
000001e0: f685 313e f897 383b 15bc a5bd c30e 5c3d
000001f0: 8e4b de3d b9c2 de3d 7b2d c1bc 1698 18bd
00000200: 64aa f53d db3e c5bd c3c7 91bc c3ca c2bd
00000210: 3dcc 583d b0f0 babd 934c a53d ab6a db3d
00000220: bec1 213b 659c de3d 3aae 963d de3e 64bb
00000230: 32c7 cc3c 553e cdbd 9abd bb3c 4468 cabd
00000240: 6282 ea3d ba32 9abb cbea bb3d 7ba0 ccbc
00000250: cd14 ce3c 4525 f33d 5747 363d bd4e d4bd
00000260: 15ff a73d 0639 353d 0eeb 743d 7942 d23d
00000270: 5dff f9bb bfda 353d 227e c8bc e554 a03d
00000280: 6d0d 0e3d c07f ab3c 98b9 86bd eea7 733b
00000290: c7ae dabd 7f1a 37bd a4cf b0bd 2cbc 183d
000002a0: 5bc4 a8bd 3c97 d9bd 1fff 38bd 4ec7 ae3d
000002b0: 3fe4 87bd 1d7f f4bd e120 d5ba 2edc a13d
000002c0: fd49 de3d bdf2 c53c 544d 023e 3a5e 93bd
000002d0: 8326 3cbc 9071 0b3e 400e f4bd de40 d7bd
000002e0: 3d46 643d a263 693d 15a4 8d3c c1be 9cbc
000002f0: 7d64 10bd 32a2 f13c 88f6 b73d e19d e5bd
00000300: 77f8 003b 0e4b f63c 1099 0f3d 3f16 f63d
00000310: 3d57 a3bd ee0a 93bd 6c05 063e d43c 28bd
00000320: a9aa 8e3b dc8e e33c 9ea8 29bd afd4 563e
00000330: b466 0b3e 7f27 b73d 13e5 a23d 46a7 1e3e
00000340: 7017 2d3e 488f cc3c f33a 53bc 06d2 893d
00000350: cea5 203d a9a2 923d 0296 3f3e c1ca b93d
00000360: 1c67 203e 53c2 f63c 04ba 5e3e 4d4f 243e
00000370: 9f13 cb3b 177b 4d3c 2405 1b3e 714b 993d
00000380: 619d fd3d 265d 8b3c cece a73d 2858 013e
00000390: 4164 743d 9a5a e33d d828 183e a5fa 28bd
000003a0: 7403 683e af6a 44bc 7fa8 913d fb1d 3cbd
000003b0: 157c ab3c e852 583d 8305 823d 88a5 db3d
000003c0: 3c50 283e 51b7 eb3d 0129 913d 6e4d e13d
000003d0: 2b8a 5f3d 12f4 ef3c 66a9 253e 9110 4fbd
000003e0: 8158 75bc 1989 283e bb11 733d 0148 3a3d
000003f0: b852 c63b 425e 133e e089 0d3d a0e5 3c3e
0.045583498 0.13806663 0.02974614 0.084775925 -0.043081097 -0.033234086 0.038076133 -0.031102732
0.03817824 0.057570267 0.033739813 0.08784661 0.06304016 0.08493342 0.113948494 -0.033197332
-0.0044587553 0.10681818 0.010791297 0.056998763 0.17272553 0.16527942 -0.044443887 0.16030103
0.15199384 0.1939368 -0.0059643616 0.10284572 0.028090987 -0.021020183 0.054370258 -0.022203775
0.110180944 0.07535391 0.05213662 0.12860854 -0.0920484 -0.05866746 0.08217812 0.055601433
0.08152089 -0.03928408 -0.010296113 -0.08724467 0.08809689 0.08145472 -0.08063242 -0.03060765
-0.037594333 0.05954343 0.11908657 -0.017746428 -0.07741095 0.10490028 0.038562585 0.0250579
0.065925315 -0.040848248 -0.0788121 -0.04593274 0.0183186 0.12661639 0.15024012 -0.053900223
0.062840864 0.12936105 0.04098431 0.06555383 -0.047393035 -0.025268313 -0.010202805 0.15416154
-0.039300695 0.034982644 -0.023684742 0.09517187 0.14335832 0.12214862 -0.087996975 0.027832335
-0.06863959 0.07104965 0.13179609 -0.049604423 0.13093562 -0.05171874 0.10496108 -0.069811836
0.15115725 0.017232338 -0.019896314 0.11804783 0.11281158 0.07909548 0.017345766 0.056985818
0.106775776 0.054757282 0.076311216 0.00061962986 0.11139795 0.08362019 0.040521357 -0.024174549
0.0017963152 -0.054762762 0.021800512 0.043095548 -0.045653667 -0.06632799 0.06038817 0.0903685
0.09396351 0.03833526 0.0378284 -0.10225533 0.13793285 -0.09645205 0.04991276 0.0008020284
0.17336258 0.0028166752 -0.080925144 0.053725015 0.10854255 0.10876984 -0.023581257 -0.037254415
0.1199539 -0.09631129 -0.01779545 -0.0951133 0.05292915 -0.09127939 0.08071246 0.10713705
0.002468213 0.10869674 0.0735745 -0.003482751 0.024997327 -0.100216545 0.022917558 -0.09883168
0.1145065 -0.004705754 0.091756426 -0.024978867 0.025156403 0.11872343 0.04450163 -0.10366581
0.0820295 0.044243835 0.059794478 0.10266585 -0.0076293186 0.044398066 -0.024474207 0.07828692
0.034680773 0.02093494 -0.06578368 0.0037178951 -0.106778674 -0.044703003 -0.08633354 0.03728883
-0.08240577 -0.10624549 -0.045165177 0.08534108 -0.06635331 -0.119383074 -0.0016260409 0.07903324
0.10853956 0.024163598 0.12724811 -0.07195707 -0.011483791 0.1361754 -0.119167805 -0.10510419
0.055731047 0.056979783 0.017290154 -0.019133927 -0.035252083 0.029496286 0.08982569 -0.11211754
0.0019679347 0.030065086 0.03505808 0.12015962 -0.07975624 -0.07179819 0.13088006 -0.041073635
0.0043538404 0.027778082 -0.04142057 0.2097957 0.13613397 0.0894308 0.07953849 0.15493497
0.16903472 0.024970666 -0.012892473 0.06729512 0.039220624 0.07159931 0.18709567 0.09071875
0.15664333 0.030121958 0.21750647 0.16045876 0.0061974074 0.012541554 0.1513868 0.074850924
0.12383533 0.01701219 0.08193742 0.12631285 0.059665922 0.11101265 0.1485933 -0.04125466
0.22657567 -0.011988326 0.07112216 -0.04592703 0.02093319 0.05281344 0.063487075 0.10724932
0.16436857 0.11509574 0.07087899 0.11001097 0.054575127 0.029291186 0.16177902 -0.05055291
-0.014974714 0.16458549 0.05934308 0.045478825 0.0060523413 0.14391425 0.034555316 0.1844697
