lstm_model.pth (torch, 316514 bytes, 12 tensors)

lstm.weight_ih_l0 f4 [256, 99]
000000 cc d5 bc bd 87 19 e8 3d 4d 6e b0 3d 84 97 45 3d
       -0.09220466 0.11332994 0.08614788 0.0482402
000010 f7 49 45 3d e2 20 94 bd a5 7a a3 bd 58 79 89 bc
       0.04816624 -0.072328344 -0.07982377 -0.016781494
000020 6d 97 da 3d 8f 44 f3 3d 57 b5 62 3d f4 64 37 3d
       0.106734134 0.11878311 0.05534872 0.04477401
000030 11 a5 a4 bb 13 d0 8d bd b4 50 2a bd 38 2d 80 3c
       -0.0050245603 -0.06924453 -0.04158087 0.015646562
000040 c7 2b 95 3d d5 00 7d 3d 51 ea 22 be 80 3b 79 3c
       0.072837405 0.06176837 -0.15909697 0.01521194
000050 39 95 77 3d fe 15 a6 bc 88 41 47 3d 5c 4d 10 bd
       0.060445044 -0.020274159 0.04864648 -0.035230026
000060 05 b0 16 be 60 df 7e bd 16 a9 35 3d d8 be 83 bd
       -0.14715584 -0.062224746 0.044350706 -0.06432885
000070 49 47 e2 bc e9 be a8 bc 24 d4 ce 3d 00 68 cc 3c
       -0.027621882 -0.020598846 0.10099056 0.024951935
000080 e4 44 19 3d 12 07 36 bd 00 c2 3d 3d 40 47 f0 bd
       0.037419215 -0.044440337 0.04632759 -0.1173234
000090 a6 2c 86 bd e6 ff 5b bd 2f 7f 8a 3d 70 77 b9 bc
       -0.06551485 -0.05371084 0.067625396 -0.02263996
0000a0 dc 25 32 3d b4 89 f7 3d ec 6e 08 3e 7a fb bc bd
       0.043493137 0.12086812 0.13323563 -0.09227653
0000b0 0b ba bb 3d 58 65 08 bc bf d2 8f 3d 20 74 90 bb
       0.09166344 -0.0083249435 0.070226185 -0.0044083744
0000c0 97 14 86 3d e0 12 97 3d 23 c0 e1 bd c4 1d 04 3d
       0.06546896 0.07376647 -0.11022975 0.03225495
0000d0 92 ca 36 3d b7 78 ac 3d 91 8b 08 3e c8 fb 82 bd
       0.04462678 0.08421462 0.1333449 -0.0639568
0000e0 34 4d aa 3d e7 ab 1b 3e 9e 11 b0 3d 44 8e d7 3d
       0.083155066 0.15202294 0.0859711 0.10525182
0000f0 95 27 d7 bd 3d 8b 59 3b a4 08 de bd 20 53 ad bc
       -0.105055965 0.0033194565 -0.10841492 -0.021157801
000100 63 dd 34 3d 53 c1 af 3d 65 90 e1 bd c8 a9 67 bd
       0.044156443 0.085817955 -0.11013869 -0.0565584
000110 2d 4a db 3b dc 39 20 3c b0 8f 09 3e e4 40 8f 3d
       0.006692192 0.00977942 0.13433719 0.06994799
000120 b3 a6 8e 3c 24 58 58 3c 73 5a 0a bd 28 bc e9 3d
       0.017413473 0.013204608 -0.033777665 0.11412841
000130 90 64 20 be b4 eb 84 bd 0e 1b 2b 3d 60 c5 ee 3b
       -0.15663362 -0.06490269 0.04177385 0.0072867125
000140 bd 39 e9 3b ec 49 0c 3e cf fc 47 3d e0 1e 1d 3c
       0.0071174786 0.13700074 0.04882508 0.009589881
000150 6c b1 f9 bc 5b 68 a3 bd 48 6d 29 bd 5e ce 84 bd
       -0.03048011 -0.079788886 -0.041363984 -0.06484674
000160 06 10 8a bd 36 24 ea bc 43 4f 62 bd f0 c5 08 3e
       -0.067413375 -0.02858172 -0.05525137 0.13356757
000170 0d 06 f6 bd 53 78 92 3d 0d 47 dc bc a6 22 c2 3c
       -0.12012873 0.07151856 -0.026889348 0.023698162
000180 c2 a5 5d bd bf b1 10 3e 60 84 13 3e 6f ba 24 bd
       -0.054113157 0.14130305 0.14405966 -0.04021686
000190 03 51 55 3d 45 42 aa bc da 27 ab bd 88 b0 f6 3d
       0.052079212 -0.020783553 -0.083572105 0.120453894
0001a0 59 ab dd bc 33 5f 4e 3c 10 39 1d bc cf 9e 1e 3e
       -0.027059244 0.012595939 -0.009596124 0.15490268
0001b0 a3 e8 16 3e 54 11 f3 bd e4 2c fa 3d 43 ab 87 3d
       0.14737181 -0.118685395 0.122155935 0.066244625
0001c0 70 18 80 3c 5d 7e c8 3b 78 70 2b 3d 4b f4 88 3b
       0.015636653 0.0061185793 0.041855305 0.0041795126
0001d0 e7 74 09 3e 6e 3e af bd 28 bf 9a bc ae b6 09 3e
       0.13423501 -0.085568294 -0.018889979 0.13448593
0001e0 fb 1a 38 bc 63 0f dd bd 72 26 85 bd 36 15 c6 3d
       -0.011236901 -0.107939504 -0.065014735 0.096720144
0001f0 50 16 a2 3d eb 7c bd bd e8 53 49 3d 7b 14 4f 3d
       0.07914412 -0.09252342 0.049152285 0.05055664
000200 b1 a9 8b bd 0c 58 c1 bd 68 36 0b bd 7b 50 eb 3d
       -0.068194754 -0.09440622 -0.033987433 0.1148996
000210 04 4b 20 bd 71 a6 84 bb b8 c4 de bd 55 1e 1d 3d
       -0.03913404 -0.0040481617 -0.10877365 0.038359005
000220 73 9d 38 3d be 81 39 3d 84 6c f4 bd eb 94 2b 3e
       0.04507203 0.045289747 -0.1193476 0.16756026
000230 b3 fb b0 bc 4f df c1 bd 48 c2 1b bd 6f 7e 24 3e
       -0.021604395 -0.09466421 -0.038027078 0.16063856
000240 67 d6 b8 bc 5d 30 fe bd 98 d7 cd 3c 6f a7 a4 39
       -0.022563173 -0.12411568 0.025127217 0.00031405265
000250 e5 ea 93 bd fe 1c 8b 3d 54 ae f4 bd 2b 1c 0b 3e
       -0.07222537 0.06792639 -0.11947313 0.13584964
000260 14 d8 2d 3e 0f 90 84 3d e4 4c e6 3d 4d 0f 03 bb
       0.16976959 0.064727895 0.112451345 -0.0019998134
000270 0d 3a e3 3d 52 74 0a bd c8 2f 9f 3d 79 2a a5 bd
       0.11095057 -0.033802338 0.077727854 -0.08064742
000280 f7 8f 4f bd 1c 7c bb bd 6c 4a 7f 3d 9d b4 3d bd
       -0.050674405 -0.09154531 0.062326834 -0.046314824
000290 1b 60 e5 3d 66 d4 6d bd 8e ca aa 3d 0b aa 14 3e
       0.11199971 -0.058063887 0.083394155 0.14517991
0002a0 12 bc e5 3c 99 11 49 bd 40 dd e0 3c f7 ea 9c 3d
       0.02804378 -0.049089048 0.02744925 0.076620035
0002b0 39 eb 21 3e e0 bc c3 3c 3c b6 44 3d 13 b3 dc 3c
       0.15812387 0.023893774 0.048025355 0.026940858
0002c0 7f 25 eb 3b b4 41 a8 3c 42 b8 d2 bd 9e 45 b5 3d
       0.0071761007 0.020539142 -0.10289051 0.08851169
0002d0 a8 d0 98 3d 6b fe c9 bd c2 0c b9 bd b6 ee 08 3e
       0.07461673 -0.098629795 -0.090356365 0.13372311
0002e0 3d 84 93 3c ad 92 2c 3d 3f 9d c3 3d ed 2c 9d bd
       0.018007392 0.04213207 0.09551477 -0.076745845
0002f0 d8 1e cf 3d 1e b6 04 3e 13 54 cc bd 09 40 61 bd
       0.10113305 0.12960097 -0.099769734 -0.05499271
000300 33 81 d7 3d 50 09 bb bd ea 4b 84 3d c7 6f e9 ba
       0.1052269 -0.091326356 0.06459792 -0.0017809802
000310 a8 40 7e 3d 1d a4 a7 bd 46 a8 d2 bd 59 36 87 bd
       0.06207338 -0.08185599 -0.10286002 -0.06602163
000320 58 75 d2 3d f2 04 fd bd d5 fd 06 bd 75 23 72 bd
       0.10276288 -0.12354459 -0.032956917 -0.059115846
000330 2f 51 c7 3c 8c c6 81 3d 14 06 e2 3c fc d4 b3 bd
       0.024330704 0.06336698 0.027590789 -0.08780858
000340 fb 7c ac bc 80 7c 61 3b e1 ee 66 bc 16 5f e6 bd
       -0.02105569 0.0034406483 -0.014095039 -0.11248605
000350 70 65 d2 bd a0 cc ff bb 1d 8e f5 bd ed 82 08 be
       -0.10273254 -0.0078063756 -0.119899966 -0.13331194
000360 de 6d a8 bd 30 4e 18 3c b0 83 2d bd 76 ae e3 bd
       -0.082240805 0.009295985 -0.042361915 -0.1111726
000370 3e 71 97 bc 90 f1 e3 3d 74 ca 9e bd 58 e9 81 bd
       -0.018486615 0.11130059 -0.077534586 -0.06343335
000380 bf f3 69 bc 90 aa 7c 3c 77 90 84 bd 51 a1 bc bd
       -0.014279305 0.015421525 -0.06472867 -0.09210456
000390 05 3b 9d bb 40 78 35 3d 57 59 98 3d e6 a6 84 3b
       -0.0047982954 0.044304132 0.07438915 0.004048216
0003a0 50 26 1b be fe fb fc 3d 15 7c e4 3d 7e db fb bd
       -0.15151334 0.12352751 0.11156479 -0.12297724
0003b0 62 d1 28 be 94 24 33 bd 4d e9 08 bd ee 07 c6 bd
       -0.16486123 -0.043736055 -0.033425618 -0.09669481
0003c0 b8 84 27 be 70 e0 da bc 1c ad 78 3d 5c 82 7f 3c
       -0.16359222 -0.026718348 0.060711965 0.015595045
0003d0 2e c4 f4 3b ec 0d a8 bd 79 1d 58 bd f6 51 d4 bd
       0.0074696755 -0.082057804 -0.052762482 -0.10367195
0003e0 d3 c1 e2 bd 92 ec fc 3d f1 4e 3c bc 97 0b 10 be
       -0.11072125 0.1234981 -0.0114934305 -0.14066921
0003f0 5e b2 e3 3c 80 fd 85 ba 2f 0a 38 3d 06 95 2c be
       0.027795013 -0.0010222644 0.044931587 -0.16853723

lstm.weight_hh_l0 f4 [256, 64]
000000 9e 21 f9 bd 37 ee a9 bd 46 00 6f bd 15 59 f4 bd
       -0.12164615 -0.08297389 -0.05834987 -0.119310535
000010 9b ce 93 bc bc b2 f2 3d fe 68 ef bd 07 93 31 be
       -0.018042853 0.11850497 -0.116899475 -0.17341243
000020 90 af fd bd 3d fd 2b be 0c 4e e4 3d a8 20 ac bd
       -0.123870015 -0.16795821 0.11147699 -0.08404666
000030 20 c1 b5 3d 9b 2e eb 3c 7f c6 2c bd 66 c9 8a bc
       0.08874726 0.028708747 -0.042181488 -0.016941737
000040 13 d9 94 3d f6 7d d6 bd c3 4c 9a 3d d0 8a 1d 3d
       0.07267966 -0.10473244 0.075341724 0.03846246
000050 64 79 85 3c 01 34 8f 3d 58 8b 8c bb 7e 1a c4 bd
       0.016293235 0.06992341 -0.004289072 -0.095753655
000060 6d 37 f5 3d bc 42 5e bc d2 ee 69 bd 20 50 88 3d
       0.11973462 -0.013565715 -0.057112522 0.06655908
000070 9f 6f c1 bb 47 c6 24 3e d9 21 04 bd 97 db 93 3d
       -0.005903199 0.16091262 -0.032258842 0.07219618
000080 55 32 21 3b 99 b7 e2 3c 72 8f 8c 3c 20 c0 a5 bc
       0.002459665 0.027675437 0.017158244 -0.020233214
000090 ff 31 82 3d a0 ed 18 3e b1 74 19 be d2 1c e1 bc
       0.06357192 0.14934397 -0.1498592 -0.027479563
0000a0 84 bd 1f be 4e fb d8 bc a2 68 bc 3d 4e 31 68 3c
       -0.15599638 -0.026487019 0.091996446 0.014171911
0000b0 2d 10 0d 3d 76 09 d7 3c 65 80 24 3d 41 15 b1 bd
       0.034439255 0.026249629 0.04016151 -0.08646632
0000c0 85 6a bc bc c9 a8 5f 3e f2 0c f0 3d ef e6 12 3e
       -0.023000011 0.2184173 0.11721219 0.14345907
0000d0 12 b9 bd bd fb 10 b0 3d e0 ca d5 3d 62 92 07 3d
       -0.09263815 0.08596989 0.10439086 0.033098586
0000e0 ae 82 d9 3d e3 73 5b 3d e7 1d 88 bd 72 0b 17 3e
       0.10620628 0.053577315 -0.066463284 0.1475046
0000f0 a3 97 8a bd 5a 2e a5 bc 81 64 d0 3d ce f4 97 3d
       -0.06767204 -0.020163704 0.101754196 0.0741974
000100 06 7c 81 3d c8 a4 2b bc 19 66 f1 bd 7a bd 2b be
       0.06322484 -0.010476299 -0.11787052 -0.16771498
000110 e6 45 b6 3d 80 c4 4b bd 7f 1d 5b bd 5b 1d f7 ba
       0.08900051 -0.049747944 -0.053494927 -0.0018853353
000120 ea d5 e2 3c 02 65 a4 3d 6c ba 94 3c 33 d6 08 bd
       0.027689893 0.08027078 0.0181553 -0.0334074
000130 a6 e2 85 bd b7 b4 48 bd 3a 65 68 3d ea e8 78 3d
       -0.065373704 -0.049000468 0.056737162 0.060769
000140 44 4d f0 bd c6 9a bc 3c b1 68 44 bd 36 d3 d7 3b
       -0.11733487 0.02302302 -0.047951404 0.0065864576
000150 75 2e f4 3c 98 9f 4a be 80 2c 6e bd 9f ed 3d 3d
       0.029807309 -0.19787443 -0.058147907 0.04636919
000160 36 19 1a bd 38 b1 7b 3c 68 5e 4d bd 1f 7d 26 3b
       -0.0376217 0.015362076 -0.05013886 0.0025404168
000170 d0 08 4e bd ff 8f 74 bd 88 c1 3b 3e 6c 4e 75 bd
       -0.050301373 -0.059707638 0.18335545 -0.059889242
000180 0e c6 75 3d 58 4d 42 3d 13 0c aa bd 38 03 bc bc
       0.060003333 0.047437042 -0.08303084 -0.022950754
000190 77 e9 9e 3d 40 f0 23 bd 44 52 7f 39 14 00 a2 3d
       0.07759374 -0.040024042 0.00024349341 0.07910171
0001a0 4d b1 34 bd ca e6 0a 3e d5 11 48 bd e8 cb 8a bc
       -0.0441144 0.13564602 -0.04884513 -0.016942933
0001b0 41 99 10 3e e7 4e dd 3c ce 50 d4 bd 37 42 80 bd
       0.14120962 0.027015163 -0.10366975 -0.062626295
0001c0 a1 4b 85 3c 12 c4 b1 3d 2d e1 71 bc a6 da fb bd
       0.016271414 0.086799756 -0.014763159 -0.12297563
0001d0 78 24 01 3d aa c3 bb bd 94 5d a8 bb fd 14 4c 3d
       0.03152892 -0.09168179 -0.0051381085 0.049824703
0001e0 cf 9c 58 bd 40 39 1a be 1e af 88 bd f1 29 91 3d
       -0.05288392 -0.15060902 -0.06674026 0.07088078
0001f0 05 d0 db bd 1a 7e 48 3d 43 6d aa 3b 35 a3 c0 bd
       -0.10733036 0.048948385 0.0052010133 -0.09406129
000200 4f 6d 9a be 22 59 7a 3d 9b d9 cc bd f5 4f 14 3e
       -0.3016152 0.06112016 -0.100024424 0.14483626
000210 49 35 2e 3e cb 74 aa bd 2b a6 5f 3d e5 e1 64 bc
       0.17012514 -0.08323058 0.05460183 -0.013969873
000220 a7 63 c0 3d 82 9e a4 bd d5 11 85 3c 2f eb 51 3e
       0.09394007 -0.080380455 0.016243855 0.20499872
000230 26 5b 98 3d 64 7e 12 3e f4 13 28 3c 3a 68 35 bd
       0.0743926 0.14306027 0.010258663 -0.04428885
000240 6b de 24 3e 3c fd 52 be c0 ec 8b 3d 01 1b a9 3b
       0.1610047 -0.20604414 0.06832266 0.00516069
000250 8c 70 d2 bc 95 88 46 3e 9b e8 ae 3d 62 64 86 3d
       -0.025688432 0.1938804 0.0854046 0.06562115
000260 b7 36 bb bd 8c d5 f9 bc d7 3d cd bd 48 dc 53 be
       -0.091412954 -0.030497335 -0.10021561 -0.206895
000270 d4 7e 98 bd bf 9d 12 be bf d3 f1 bd c5 dd e4 3c
       -0.074460655 -0.14317988 -0.118079655 0.02793778
000280 76 f6 c4 bc bb d6 34 3c b8 a1 1b bd 46 5f 05 bd
       -0.024043303 0.011037524 -0.037996024 -0.032561563
000290 69 2d bd 3b 4a ea 3e be 39 e0 c4 bc 2f 5b 5b be
       0.0057732356 -0.18644062 -0.024032699 -0.21421503
0002a0 23 9f 0c bc 1d 40 3b bd c7 c2 49 bd 9f ae 91 bc
       -0.008582863 -0.04571544 -0.04925802 -0.017783461
0002b0 32 99 71 3d c4 dc b9 bc 96 78 8f bd 03 e6 b2 bd
       0.05898399 -0.022688277 -0.07005422 -0.087352775
0002c0 be 5a dc 3d 28 7a eb bd ac ba a9 3d 9b 66 39 bb
       0.10759495 -0.11497909 0.08287558 -0.0028289917
0002d0 80 bc a0 bd 33 15 ed 3c fe 90 dc bd a7 14 8d bc
       -0.078484535 0.028940773 -0.107698426 -0.017221762
0002e0 13 b4 44 3b 10 52 af 3c 90 b6 47 bd d5 25 77 3c
       0.003001456 0.021401435 -0.04875809 0.015084703
0002f0 59 7a 5c 3d 7b 58 40 3d 09 18 fa bd b0 a8 a4 bc
       0.053827617 0.04695938 -0.122116156 -0.020099968
000300 02 6f c5 3d 7b 9d a4 bd 43 36 de bd 21 89 3f 3d
       0.09640314 -0.080378495 -0.10850193 0.046761636
000310 8a f3 51 bd c6 88 3f 3d 05 72 b0 bd 60 47 ef bc
       -0.051257648 0.046761297 -0.086154975 -0.029208839
000320 f1 bc b1 3c 65 f8 da bd ae 28 d0 bd 3b fb 3a be
       0.02169654 -0.10691909 -0.10164009 -0.182599
000330 6d b6 a7 bd 4a 12 8e bd 3d d4 ee 3d 54 6e 08 bd
       -0.08189092 -0.06937082 0.11661575 -0.033308342
000340 40 8b d2 bd b3 ef 7a bd f6 a2 57 3c 2b 68 5d 3c
       -0.10280466 -0.06126375 0.0131614115 0.013513605
000350 0b 5b db bc ad 62 dc bb f7 4c 77 bd 68 46 16 3e
       -0.026776811 -0.0067256303 -0.060376134 0.14675295
000360 60 c7 92 3c 3c b9 93 3d f1 86 ad 3d f8 d3 a4 3c
       0.017917335 0.07213065 0.08473004 0.020120606
000370 05 ae 86 bc 3e 77 55 3d 3e 6c d5 3d 0f a2 a3 3d
       -0.0164404 0.05211567 0.10421036 0.079898946
000380 ea 98 77 3d c3 e6 34 bd f1 f4 10 be 03 0e e6 bc
       0.060448565 -0.044165384 -0.14155938 -0.028082853
000390 fc a8 8e 3d 44 27 9a bd 20 2b c2 3c 99 f4 a9 3d
       0.06965825 -0.075270206 0.023702204 0.082986064
0003a0 d8 f6 82 3d e4 87 9a bd 4a 1a d7 3b c7 d5 85 bd
       0.06394738 -0.0754545 0.006564413 -0.065349154
0003b0 e1 8f cd 3d 6e d0 f2 bd 6f ad 83 bb d3 31 cb 3d
       0.10037208 -0.11856161 -0.0040184776 0.099216126
0003c0 fa f1 fb 3c 14 ba 86 bd 91 6b b6 bc 13 30 c7 bd
       0.030755032 -0.0657846 -0.022268089 -0.09725966
0003d0 b9 c3 9b 3d 34 e6 bd bd 0a 06 c4 bd c8 a6 b1 bd
       0.076056905 -0.092724234 -0.09571464 -0.08674389
0003e0 0a b9 3e 3d 1f ae c5 bd 94 0a 0f be 50 84 65 bd
       0.046563186 -0.096523516 -0.13968879 -0.056034386
0003f0 4f f0 f9 3d 1d 72 4f 3d 5c e9 d2 3d c0 bc de 3c
       0.12204038 0.050645936 0.10298416 0.027189612

lstm.bias_ih_l0 f4 [256]
000000 9e 76 d6 3d 2d b2 0d 3e 2e fb 9e bc 14 91 80 bd
       0.10471843 0.138375 -0.019406881 -0.062776715
000010 50 5e ad bd 53 c1 95 bc 5f ea fe 3c 9f a2 3d 3d
       -0.08465254 -0.01828066 0.031117616 0.046297666
000020 62 96 28 3d ee 73 ac 3d e0 ea 3e 3d 70 f7 ac 3d
       0.04115904 0.08420549 0.046610713 0.084456325
000030 8a 2d a9 bb fd e2 20 3e 52 7f 69 3c 75 8c 27 3e
       -0.0051628994 0.15711589 0.014251547 0.16362174
000040 20 8e f2 3d 32 7a f8 3c 64 d4 7b bd 9b 01 95 3d
       0.118435144 0.030331705 -0.06148185 0.07275697
000050 f2 f4 ce bc 7e e5 9c 3d ed 7f 05 bd 1c a3 e7 3d
       -0.025263283 0.0766096 -0.032592703 0.113104075
000060 4c 51 cd bc c9 02 cd 3d 29 ba 0f 3e 4d c0 c6 3d
       -0.02506318 0.10010297 0.14035858 0.09704647
000070 31 ad 36 3e 46 4e 54 bd a8 2a d8 bd 52 d5 e2 3d
       0.17839505 -0.05183246 -0.10555011 0.11075844
000080 a6 df d0 bd 7c 71 e6 3d 74 77 a9 bd 7e 6b a9 3d
       -0.101989076 0.11252114 -0.08274737 0.08272456
000090 bc 97 3e 3d ae b9 33 3e f7 aa 67 bd bd 9d 85 bd
       0.046531424 0.175513 -0.05655953 -0.06524227
0000a0 0c d1 27 3d ac ac 6d 3d 6e 5f 07 3e 32 62 a1 3d
       0.040970847 0.058026 0.13219997 0.078800574
0000b0 f6 25 49 bd d7 9a 64 bd 3f c0 22 be 4e 3f a5 bd
       -0.049108468 -0.05581173 -0.15893649 -0.08068715
0000c0 52 4b bb bd 88 be 04 3c 80 8e 56 bd 79 f5 ce 3c
       -0.091452256 0.008102067 -0.052381992 0.025263535
0000d0 a6 db 6a bd 08 e9 86 bc 90 47 00 be b8 93 21 3e
       -0.05733838 -0.01646854 -0.12527299 0.15779006
0000e0 48 eb 88 3c 84 61 6c bd 69 16 b3 bd 68 db ef 3d
       0.016713753 -0.057710186 -0.08744509 0.1171177
0000f0 6e ef 84 bd 95 b0 11 3e d7 63 83 3d 51 6b bf bc
       -0.0649098 0.14227517 0.06415527 -0.023366602
000100 bb d7 0e 3e b2 e6 81 3a d6 06 13 3e 02 5f 03 bd
       0.13949482 0.0009910672 0.14358076 -0.03207303
000110 ab c5 bb 3a 8d 9d 81 bd 18 8b a2 3d 43 74 ff 3c
       0.0014325877 -0.063288786 0.07936686 0.031183368
000120 37 6b d5 bd 42 8b b0 3d 8a 27 9d bc 75 c2 8c bd
       -0.1042084 0.08620311 -0.019183893 -0.06873027
000130 2c 93 c7 bd 57 c1 0e 3e 7d ea dc 3c f6 10 23 3e
       -0.09744868 0.13940941 0.026967281 0.15924439
000140 29 b3 71 bc 3a cc 8e 3d e4 40 1e 3d de ba e0 bd
       -0.014752188 0.06972547 0.038636103 -0.10973142
000150 76 19 9a bd 87 07 c1 bc 64 61 00 3c c6 f6 08 bd
       -0.075243875 -0.02356316 0.00783572 -0.033438466
000160 ff c8 8d 3d fb 1f 99 3d 9a 6c a4 bd 85 7c 9e bd
       0.069231026 0.07476803 -0.080285266 -0.07738594
000170 ce fe 7e 3d 05 e7 b5 bc d4 e4 06 3d 78 ec 5e bd
       0.06225472 -0.022204885 0.03293307 -0.054424733
000180 ff 25 2c bb 9c 14 c1 3d d4 67 b5 bb fe 86 d3 3d
       -0.0026267765 0.09427759 -0.005536059 0.10328482
000190 6a 3d 52 bb 47 55 11 bc 09 2d 58 3b 91 7a 7f bc
       -0.0032080063 -0.008870429 0.0032985827 -0.015593187
0001a0 ab c6 88 3a b0 92 33 bd 7a 9c b7 3d 5a 4f 05 3e
       0.0010435184 -0.043841064 0.089653924 0.13018551
0001b0 72 7b 04 bd 16 44 d6 bd 9b 1d f3 3d 87 02 18 3d
       -0.03234429 -0.10462205 0.11870881 0.037111785
0001c0 8d 1a 70 3d 60 86 f2 bb 23 31 f9 3d 12 36 2e 3d
       0.05861907 -0.0074012727 0.12167575 0.042532034
0001d0 1b 04 36 bc 74 04 77 3d 3c 4e a0 bd 74 92 a3 3c
       -0.011109377 0.06030698 -0.07827422 0.019967295
0001e0 05 80 2e bc 8f 7e 55 3d 3a 5c 46 3d f0 35 57 3d
       -0.010650639 0.05212265 0.048427798 0.052541673
0001f0 ed db aa 3d 1c b6 a5 3c 67 58 f8 bd b8 06 b0 bd
       0.08342729 0.020228438 -0.121262364 -0.085950315
000200 94 e2 0a be db f3 b5 bb 0e 04 0e be a5 3a 5d bd
       -0.13562995 -0.0055527515 -0.13868734 -0.054011006
000210 df 5e 4e 3d 5d 3f c1 3d 7a 0e ea bd 00 6a 32 bd
       0.050383445 0.09435914 -0.114285424 -0.04355812
000220 82 a0 c4 3c d9 63 17 3e fd e8 b4 bb 84 b2 0d 3d
       0.024002317 0.14784183 -0.0055209384 0.034594074
000230 25 79 09 3d 71 01 01 bd 62 67 f9 3d c5 e2 d2 bd
       0.033562798 -0.031495515 0.12177922 -0.10297159
000240 b9 a5 b0 3c ec df 38 3d 13 00 72 3d 10 ce 85 3c
       0.021563398 0.045135424 0.059082102 0.01633361
000250 ca 82 11 be 99 b3 bb 3c b5 50 b3 bc ce e2 de 3d
       -0.14210048 0.022912787 -0.02188907 0.10883103
000260 42 d1 bb bd 85 ee 28 bb 78 bc 11 3e 85 0c 98 3d
       -0.09170772 -0.0025776934 0.14232051 0.07424263
000270 b8 89 15 bc 83 bd 1e 3e 5b 25 db bd b3 88 81 bc
       -0.009127073 0.1550198 -0.10700484 -0.015812254
000280 51 63 e4 bb f0 b3 7b 3d c6 90 9b 3d ec f6 be bc
       -0.0069698473 0.0614509 0.07595973 -0.0233111
000290 70 57 b1 3d f1 ee 77 3d 17 f9 a2 bd 48 20 dc 3c
       0.086592555 0.060530607 -0.07957666 0.026870862
0002a0 ca 3b ff 3d 6e 09 3f 3d be fe 46 3d ef 06 0a 3e
       0.12462576 0.046639852 0.048582785 0.13479207
0002b0 4f 14 09 3e 02 50 a5 3b b4 35 f0 bd 27 a5 b2 3d
       0.13386653 0.005044938 -0.11728993 0.087229066
0002c0 29 32 c1 bd 6e c9 ac bd 39 1e 99 3d e4 06 1a bc
       -0.094333954 -0.08436857 0.07476468 -0.009401057
0002d0 d2 31 29 bc 13 b6 c7 bd 2a e1 84 3c c4 41 ca 3b
       -0.0103268195 -0.09751525 0.016220648 0.0061723907
0002e0 b7 b8 17 bd ad a8 0b 3d 71 ca cf 3d b2 cc 73 3d
       -0.037041392 0.03409641 0.101460345 0.059521385
0002f0 b0 05 0b 3d ea 7c 24 3c 5a b8 7b bc b9 d5 20 3e
       0.03394097 0.010039547 -0.015363777 0.15706529
000300 d0 4a a1 bd 12 73 88 bd b9 33 56 3c 98 15 dd bd
       -0.078755975 -0.06662573 0.013073855 -0.10795134
000310 cf ab a5 bd 98 7a dd 3d 62 21 31 3b 46 9c 96 bc
       -0.080894105 0.108143985 0.0027027954 -0.018385064
000320 e7 26 56 bd 90 19 bd 3d 51 ec 03 3e ca 49 93 bd
       -0.052283194 0.09233391 0.12883116 -0.071918085
000330 87 92 ea 3d ce 49 da bd 2e ea bf bd 28 c6 99 3d
       0.11453729 -0.106586084 -0.09370838 0.075084984
000340 fe 4d c5 bd a4 94 d5 3d 08 20 04 3d 97 3e 2c 3d
       -0.096340165 0.104287416 0.03225711 0.042051878
000350 1e 01 dc 3a 7b e4 08 3e 42 ba 3f bd 55 41 29 bd
       0.0016785001 0.13368408 -0.04680849 -0.04132207
000360 4d 72 0c 3d f4 66 c9 3c b2 b2 4f bd 5e 65 cb 3d
       0.034288693 0.024585225 -0.050707527 0.09931444
000370 68 07 9a 3d 10 b4 b3 bd 03 9f b5 bd ee 93 96 3d
       0.07520944 -0.087745786 -0.0886822 0.07352434
000380 55 6b 1d be 6b 7c c7 3d ea a0 e1 bc 54 6b 73 3c
       -0.15372975 0.09740528 -0.02754255 0.014857132
000390 83 b6 a9 3d c4 f4 8d 3b 82 22 68 bd 3b 49 59 bd
       0.082867645 0.004332157 -0.056673534 -0.053048354
0003a0 c4 47 30 bd 57 de eb 3c e4 dd 30 3d 24 0d 48 bd
       -0.04303719 0.028792543 0.04318036 -0.048840657
0003b0 15 1e c8 3d 02 5e 04 3d db 19 cb bd 6f d4 64 3d
       0.09771363 0.032316215 -0.09917041 0.055866655
0003c0 dc aa 0f be 99 2e 82 3c 0c c7 31 bd 81 00 9a 3d
       -0.14030021 0.01589136 -0.043402717 0.07519627
0003d0 00 95 05 3d 96 3e 09 3e d7 a2 1a 3d 16 b5 73 3c
       0.0326128 0.13402781 0.037752952 0.014874717
0003e0 d0 d8 2c bd b6 f4 f5 bc f8 fd 04 3d 33 f6 c4 3d
       -0.042198956 -0.030023914 0.032468766 0.09617271
0003f0 5f bf d9 3d 0c 63 19 3d a5 00 cc 3d ad 18 e2 3d
       0.10632204 0.037447974 0.099610604 0.11039863

lstm.bias_hh_l0 f4 [256]
000000 d2 27 7e 3d 41 84 13 3e d0 a3 de 3d a5 76 42 bd
       0.062049694 0.1440592 0.108710885 -0.04747643
000010 01 23 fd bc 91 eb 8e 3c b8 42 e6 3d d8 d3 01 be
       -0.03090048 0.017446311 0.11243194 -0.12678468
000020 c2 4d af 3d 09 e8 a8 bb 4c c4 2e bd 14 27 96 3c
       0.08559753 -0.005154614 -0.042667672 0.01832918
000030 89 6b ea bd 13 fa dd bc 98 5d b6 bd d8 bc 7c 3d
       -0.11446292 -0.027096784 -0.0890457 0.061703533
000040 2c 1b 9c 3d cd 21 2e 3d 0f b1 90 3d 9e 25 81 3d
       0.0762237 0.042512704 0.07065021 0.06306003
000050 84 b7 c9 bc 8d 02 2a 3e c3 04 35 3d c1 6a 0d 3e
       -0.02462364 0.16602536 0.044193994 0.13810255
000060 9d 68 8b bd c9 61 b9 bd 7d 22 b9 3c 2f de 9b bd
       -0.06807063 -0.09051854 0.022599453 -0.076107375
000070 4c 8c af 3a 96 95 a6 bd da 40 eb bd fa 33 a2 bd
       0.0013393252 -0.08134 -0.11486979 -0.0792007
000080 b8 9a f4 bc fb 57 56 bd d2 df 9b 3b 9a 65 35 bd
       -0.029858932 -0.05233 0.004756906 -0.044286348
000090 3f 5f 4a bd 49 43 d7 bc 47 f6 1e 3d fd bc 5a bd
       -0.04940724 -0.026277201 0.038809087 -0.05340289
0000a0 60 27 76 3c 02 2d 56 3e fc 96 aa 3d 9b c5 11 bd
       0.015024036 0.20915607 0.08329579 -0.035588842
0000b0 89 33 71 3d d4 27 74 3d 0d dc 25 bd 5b f2 8f bd
       0.05888704 0.059608296 -0.04049306 -0.070286475
0000c0 b4 63 73 bd 79 ce 3f 3d ce e9 79 3d a2 13 2d 3d
       -0.059421256 0.046827767 0.06101399 0.04225505
0000d0 60 1f 01 3e 71 0a cf 3d f2 25 6f bd c6 1f 18 3d
       0.12609625 0.101094134 -0.058385797 0.037139677
0000e0 15 bd b6 3d 82 d5 8a bc fd e3 6e 3d 0b 01 03 3e
       0.08922783 -0.016947512 0.058322895 0.12793367
0000f0 17 a2 b2 bc 28 52 2d 3d 69 38 91 bd a7 ad 50 3b
       -0.021805806 0.04231468 -0.070908375 0.0031841786
000100 74 16 25 3d de 8f c9 3d e8 f0 08 bd aa 11 85 3c
       0.040304616 0.098418936 -0.03343287 0.016243774
000110 ae 9c ca 3d 7e c5 23 bb b2 eb 88 3d b2 68 ee bb
       0.098931655 -0.002498954 0.0668558 -0.0072756642
000120 ad 45 9c 3d 73 35 b0 bb 60 fe c8 bc 4d 8f 4c 3d
       0.07630477 -0.0053774654 -0.024535358 0.04994135
000130 e8 5f c7 3d ba 9e 2d bd c2 5b e7 bd 56 6f 8f 3d
       0.097350895 -0.0423877 -0.11296798 0.070036575
000140 10 0f 02 3d 17 65 6a bb 28 48 55 3c da 00 a3 bd
       0.031752646 -0.003576582 0.013017692 -0.07959147
000150 ec cd cd bb 7c fd 93 bd 95 29 82 3c 28 07 3b 3d
       -0.0062806513 -0.07226083 0.015888968 0.04566112
000160 ba 3f 13 3e 91 98 88 3d 44 f5 f9 3d e1 fc 83 3d
       0.14379779 0.06669725 0.12204984 0.06444717
000170 84 de c6 3c 73 13 82 3d 86 be 34 3d c3 9c f7 3a
       0.024276026 0.06351366 0.04412701 0.0018891323
000180 d2 47 7f bc da ab fb bd fb bd c6 3d 57 e6 08 3e
       -0.015581088 -0.122886375 0.09704205 0.13369118
000190 05 71 8c 3c 5e 0d 84 bd 60 9c 44 39 bd 92 9c 3d
       0.017143736 -0.06447862 0.00018750271 0.076451756
0001a0 7b 86 b4 3d 23 7b f3 3d d0 2f 95 3d 94 4c 82 3c
       0.088147126 0.11888721 0.0728451 0.015905656
0001b0 25 bf 8f 3d cd 88 19 3c 52 50 50 3d dc 3a a1 bc
       0.0701888 0.009370995 0.05085785 -0.019681387
0001c0 28 6c 22 3c 94 db 1a be 9d 9b 11 bd 21 72 d8 3d
       0.009913482 -0.15122825 -0.035548795 0.10568643
0001d0 05 6b 96 bc 11 88 df 3d e5 fd af bd d1 ba a5 3d
       -0.018361578 0.109146245 -0.085933484 0.08092273
0001e0 79 cf 70 3c 80 e0 32 3e 98 51 42 3d b1 db b9 3d
       0.014697903 0.17468452 0.047441095 0.09075106
0001f0 cb 37 1c bd b0 b3 24 3e 8e ec d9 bc 54 15 e4 bd
       -0.038139146 0.1608417 -0.026602056 -0.111368805
000200 4c d0 d7 bd 88 89 cc 3d fe 84 8b 3b 0b 12 98 3d
       -0.10537776 0.099871695 0.0042577973 0.074253164
000210 32 13 b4 bc 43 0e c8 bd 4c 14 c3 bd 3b c2 9e 3d
       -0.02198181 -0.09768345 -0.09525356 0.0775189
000220 df 33 6c 3d b9 a4 ad 3d b0 d7 e8 bd bd 78 0e 3e
       0.057666656 0.08478684 -0.11369264 0.13913245
000230 d1 6c d9 bd 90 8e 0d be 7a bf 77 3c 17 e1 21 3d
       -0.10616458 -0.13823915 0.015121335 0.039521303
000240 4e 19 c5 3d d4 43 83 bc 54 c0 e8 bb 2d 4f 13 be
       0.09623967 -0.016023554 -0.0071030054 -0.14385672
000250 5a dc 59 3d f6 ca 06 be f9 64 92 bc 74 18 fe 3c
       0.05318866 -0.13163361 -0.017870413 0.03101752
000260 d4 f0 c1 bd 6e ef 75 3c 40 d0 d1 3d 29 46 8c bc
       -0.094697624 0.015010698 0.10244799 -0.017123299
000270 f5 13 0f be 4c 80 19 3e c3 ac 0c bd e8 36 56 3d
       -0.13972457 0.14990348 -0.034344446 0.052298456
000280 65 46 3b bd 5e 04 ea bd 50 2e e3 3c 1b 43 91 3d
       -0.04572143 -0.11426614 0.027732044 0.070928775
000290 1a 1c f1 3d 26 19 85 bc 5d 88 ac 3c af 50 66 3d
       0.11772938 -0.016247343 0.021061117 0.05622929
0002a0 b8 56 8e bc a4 7e da bb 2d 42 ee bb 91 3a 15 3d
       -0.017375335 -0.006667929 -0.0072710724 0.036432806
0002b0 a9 78 95 3a 19 bf 8c bc d7 cd d0 bc 58 c8 ec 3b
       0.0011403757 -0.017180966 -0.025488777 0.0072260313
0002c0 f8 a2 68 3d 3f b2 8f bd b9 d6 4a bb 70 83 93 3d
       0.056796044 -0.070164196 -0.0030950739 0.07202804
0002d0 48 3b b0 bd 22 e4 45 bd cb af 2a bd cf c0 4c bd
       -0.08605057 -0.048313268 -0.041671555 -0.049988564
0002e0 5c ee f5 bd 5d 35 c8 bd 8b a0 44 bd ce 48 2d bd
       -0.12008354 -0.09775803 -0.04800467 -0.04230576
0002f0 9c 5d f4 3d 3b 1b fa bc ee a2 9b bd a8 24 c5 3d
       0.11931917 -0.030530563 -0.07599436 0.09626132
000300 1a 32 42 3d f4 a6 ae 3c 76 8e 2a 3e 96 5e 03 be
       0.04741106 0.021319844 0.16655907 -0.1282905
000310 23 12 68 bc 6c e3 53 3d 30 48 05 3e 9f 60 d9 3d
       -0.01416448 0.05173056 0.13015819 0.10614132
000320 a7 a5 9b 3c 2b da 67 3c 12 3c c6 3d ec cc e4 bd
       0.018999888 0.014151136 0.09679426 -0.11171898
000330 7f 7a 63 bd de a6 72 bb cc 59 ca 3c 31 04 01 3d
       -0.055536743 -0.003702573 0.024701022 0.031498138
000340 b0 7f c5 3d 5c f8 bd 3d 8a b2 64 bd 88 0e c2 bd
       0.09643495 0.092758864 -0.05583433 -0.09475428
000350 52 31 67 3d 51 11 5f 3e 86 74 ee bc 75 62 40 3d
       0.05644352 0.2178395 -0.029108297 0.046968896
000360 86 d8 c8 3d 1d 87 11 3d 59 44 82 3c d4 88 ec 3c
       0.098069236 0.035529245 0.015901731 0.028873838
000370 18 ec 16 3e 68 37 03 bd 07 00 fd 3b 74 ae 1f bd
       0.147385 -0.03203526 0.0077209505 -0.03898473
000380 de c1 0b be f1 79 72 3d e5 8f a5 3d 23 e5 66 bd
       -0.13648173 0.059198324 0.08084086 -0.056370866
000390 81 83 e6 3d 60 0f ae 3d 06 f7 67 3d e7 2b 88 3d
       0.11255551 0.08499026 0.056632064 0.06648999
0003a0 23 58 b6 3c 0d 78 1d 3e ce e7 9a bb d7 f5 9f bc
       0.022258824 0.15377827 -0.0047273403 -0.019526405
0003b0 8d 14 f0 3c 13 a2 ac bc 46 c8 1c 3d 1c e7 d4 bd
       0.029306674 -0.021073377 0.038276933 -0.10395643
0003c0 9e 06 8c 3d 68 a7 ba 3d 05 b2 34 3e 26 56 cd bc
       0.068372 0.091139615 0.17646034 -0.025065493
0003d0 79 b4 cf 3b a0 4e 0d 3e 7b 51 e8 3c 10 7a dd 3d
       0.0063386527 0.13799524 0.028359165 0.10814297
0003e0 5f 1f 11 3e 50 2a e2 3c d1 a6 b7 bd 52 3f 88 3d
       0.14172123 0.027608067 -0.089673646 0.066527024
0003f0 e9 49 91 bd b1 6f b8 bd 7b 0d 1f 3e e5 93 f5 3d
       -0.07094175 -0.090056784 0.15532486 0.11991099

lstm.weight_ih_l1 f4 [256, 64]
000000 c6 14 23 3d ee bd fa 3a 40 75 a2 bd 9f 8f 0a bd
       0.039814733 0.001913009 -0.0793252 -0.033828374
000010 fb a8 41 bd 7f c1 09 bd b8 6d 4a 3d 0f 00 43 bd
       -0.047280293 -0.033631798 0.049421042 -0.047607478
000020 de ac 22 bd 4d ac 1f 3d 97 08 a7 3d 39 8f 88 3d
       -0.03971564 0.03898268 0.08155935 0.066679426
000030 cb 31 1f be 1a c8 b9 3c 94 7a d9 3d 3a 08 03 bd
       -0.15546338 0.022678424 0.10619083 -0.031990267
000040 dd 7a f9 3c 4e a3 eb bd dd 8c b6 bd fa 50 23 bd
       0.030454094 -0.11505757 -0.08913586 -0.039872147
000050 f0 14 64 bd 0b 6e 06 be 7e 45 c6 3b db 9b 55 3d
       -0.05568403 -0.13127916 0.0060507646 0.05215059
000060 2b 6f 04 be 73 14 b5 bd d9 5f 15 be cf db 34 3e
       -0.12933032 -0.08841791 -0.14587344 0.17661975
000070 bd 1f 10 be 64 29 ac bc fb 7c f9 3d 92 e1 11 3d
       -0.14074607 -0.02101583 0.12182041 0.03561551
000080 9e de 7e 3c 44 c2 25 3d e4 75 fd bc 45 9a db bd
       0.015556006 0.04046847 -0.030940004 -0.10722784
000090 d1 65 b6 3d 52 65 f3 3d 50 87 c6 3d 31 69 3f bc
       0.08906139 0.1188456 0.096937776 -0.011682794
0000a0 0c 3d 5a bc 13 ac c1 3d 8f d4 66 bc 3b f1 14 3e
       -0.013320219 0.09456649 -0.014088764 0.14545147
0000b0 92 33 b7 bd b7 08 cd bd ff ed 1a bd f5 f6 f6 3d
       -0.08945383 -0.10011428 -0.037824627 0.12058822
0000c0 2b 1e 58 3d e3 a3 03 be 5f 49 d2 bb 0f 0b 68 bd
       0.052763145 -0.12855487 -0.006417438 -0.05665117
0000d0 68 62 87 bd 4a fa af bd e5 15 e3 3d e2 fb b8 bd
       -0.066105664 -0.08592661 0.110881604 -0.09032418
0000e0 8b e5 2c 3c 9f f9 0a bd d2 83 f0 3d df 47 95 3d
       0.010552774 -0.033929463 0.11743893 0.07289099
0000f0 cb 39 ce 3d f8 ba 0a be 55 5d a7 bd eb ab 4e 3d
       0.10069617 -0.13547885 -0.081720985 0.050456923
000100 b8 38 89 3d 61 f4 b6 3d 86 d2 b5 bd 3a 1d 34 3c
       0.06700271 0.0893333 -0.08878045 0.010993296
000110 c9 d0 65 bc 1a 7a 62 be ac 1f 25 bd 01 1c 75 3c
       -0.014026829 -0.2211689 -0.040313408 0.01496029
000120 b0 ae d5 3b a0 df 03 3d 44 3a 26 be 4e e3 8e 3c
       0.0065210685 0.032195687 -0.16233164 0.017442372
000130 a3 3b 27 3e 1d 7f cf 3c e6 ec 3f be 77 d6 c9 3c
       0.16331343 0.025329167 -0.18742713 0.024638398
000140 ef dc 15 be e1 6d 80 bc af 9b 88 bd 0b e6 dd 3c
       -0.1463506 -0.015677394 -0.06670319 0.027087232
000150 29 a2 31 bd 60 45 68 3d 7f 9d 00 3e 48 1e 20 bc
       -0.04336754 0.056706786 0.1256008 -0.009772845
000160 6e 4f e2 bc d4 a9 3b bd 87 b7 8c bd d0 d6 90 bc
       -0.027625766 -0.045816258 -0.068709426 -0.017680556
000170 cc 71 48 3d 2f 21 d2 3d 31 cf 3a bb ee 5e e8 3d
       0.04893665 0.102602355 -0.0028504843 0.113462314
000180 51 e2 62 bc 49 98 f1 3d 98 f4 9d bd 46 13 7d bd
       -0.013847903 0.11796624 -0.07712668 -0.06178596
000190 e6 30 0a 3e 87 42 77 bd e0 d6 a4 bc 28 fc 5a 3d
       0.13495216 -0.06036618 -0.020121992 0.05346313
0001a0 94 17 1b bd 1a 25 b2 3d 5f 38 96 3d fc e8 4e bd
       -0.037864283 0.08698483 0.07334971 -0.05051516
0001b0 de b9 a0 bd 90 22 cc bc 7e f7 07 3e 1c b2 11 3d
       -0.07847951 -0.024918824 0.13278005 0.03557025
0001c0 45 51 f5 3c b2 9f 10 3e e3 bb b1 bd 3a 9c cb bd
       0.029945979 0.14123419 -0.08678415 -0.09941907
0001d0 69 bf 8d 3d e3 66 f3 bd 08 b3 18 be ae 55 26 bd
       0.06921274 -0.118848585 -0.14912045 -0.040609054
0001e0 49 8a bb 3d 58 88 47 bd f5 a9 ea bd 03 e6 a1 bd
       0.09157235 -0.048714012 -0.11458198 -0.079051994
0001f0 88 b8 6c 3a ee f9 60 bd b5 4f 4a be 20 6c 08 bd
       0.0009030183 -0.05492585 -0.19756968 -0.03330624
000200 04 41 89 bd 99 95 1a bd 70 88 bf bc b3 b8 9b 3d
       -0.06701854 -0.037740324 -0.023380488 0.07603588
000210 f5 3a 47 bd e3 90 9c bd 02 36 6d bd c6 a7 d4 bd
       -0.04864021 -0.076448224 -0.057912834 -0.10383563
000220 08 62 9d bd ea 31 2a be bf e0 90 bd 38 75 0c 3d
       -0.076847136 -0.16620603 -0.07074117 0.034291476
000230 44 11 8f bc 75 b1 ef 3c 70 ea ed bd bd 31 b4 3d
       -0.017464288 0.029259423 -0.11616981 0.08798549
000240 5a 43 1d 3d 46 39 84 3d c2 fc b8 3d 77 c4 f0 bd
       0.03839431 0.064562365 0.09032585 -0.11756223
000250 f7 95 7f 3d c3 83 61 bd 81 af d7 bd 56 5e f9 bc
       0.062398877 -0.0550573 -0.105315216 -0.03044049
000260 73 5f be bd 68 68 09 be 74 40 bf bd 54 9b a0 bd
       -0.09295549 -0.13418734 -0.09338465 -0.078421265
000270 fd 41 63 bc 9c fa ff 3d b6 99 f1 bc 33 03 c6 bd
       -0.013870713 0.12498972 -0.02949224 -0.09668579
000280 57 16 41 3d 53 cf b4 bd 87 7d b8 3d 01 d8 c9 3d
       0.047140446 -0.088286065 0.090083174 0.098556526
000290 31 2e 06 3e bf 9a a3 3d 4b d0 88 3b ed 16 96 3d
       0.13103558 0.079885 0.004175221 0.073285915
0002a0 09 43 8b bd da 12 c1 3c 6a 24 43 bd 62 1f 94 bd
       -0.06799895 0.02356856 -0.04764215 -0.07232548
0002b0 8f 60 45 3d 49 96 80 3d 9d 01 89 bd e1 e4 07 3e
       0.04818779 0.062786646 -0.06689761 0.13270904
0002c0 77 29 36 3d aa b6 8a 3d f9 8d 41 3a 60 64 fe bb
       0.044473138 0.06773122 0.00073835213 -0.0077634305
0002d0 b8 be b1 3d d8 40 d7 bd ab 84 ea 3d f9 ed f8 bd
       0.08678955 -0.10510415 0.11451086 -0.12154765
0002e0 52 78 82 3d 5b 56 1e bc 2e b5 d0 3c 70 a7 61 3d
       0.063706055 -0.009664143 0.025477018 0.05509132
0002f0 fd c6 6b 3d 66 11 07 be f1 f4 3b 3e ad 80 73 3d
       0.057562817 -0.1319023 0.18355156 0.059448887
000300 ea 8f 52 3d 47 6e 04 be 32 d7 a1 3c d6 c4 96 bd
       0.05140678 -0.12932692 0.019755933 -0.07361762
000310 43 df 7d 3d 9a 3b f2 3c 7f 1f dd bd 5a 29 3a 3e
       0.061980497 0.029569436 -0.10797023 0.18179837
000320 d0 0b 7c bb 9f 22 ce 3c 84 4e 16 3e b6 9d 98 3d
       -0.003845919 0.025162993 0.14678389 0.07451956
000330 10 42 3b 3d 18 e8 f5 b9 f7 a3 6a 3d 69 10 e5 bd
       0.0457173 -0.00046902965 0.057285275 -0.111847706
000340 fd f3 b7 3d b1 11 27 bc f9 2d 79 3d 32 40 c3 bc
       0.08982084 -0.010197089 0.06083486 -0.023834322
000350 fc d1 a9 bd 2f 1f 74 bd ac 2b ab bd f4 3b 90 bd
       -0.082920045 -0.05960005 -0.08357939 -0.07042685
000360 e1 cd 25 3e fc 6f d7 bd 05 0a 16 3e 72 9c 22 3d
       0.16191818 -0.10519406 0.1465226 0.03969998
000370 d6 c2 0c 3e 22 b8 02 bd a2 9d 14 3e 2f 07 1c be
       0.13746199 -0.031913884 0.14513257 -0.15237115
000380 be e8 f9 bd fc 6e 6d be f1 e2 9a bd 8a 6c 74 bc
       -0.12202595 -0.23186868 -0.07562817 -0.014918456
000390 26 34 b2 3d 28 2b cc 3d 98 33 d5 3d fb 04 24 3d
       0.08701353 0.09969169 0.10410231 0.040043812
0003a0 e6 fd 0c be 6e 13 1e 3d 87 3f a8 ba 2c e8 0f 3e
       -0.1376873 0.03859275 -0.0012836315 0.1405341
0003b0 82 da 22 be e6 67 02 be bc 10 7f 3d 2d 00 ee bb
       -0.15903667 -0.12734947 0.06227182 -0.0072632045
0003c0 74 07 64 3d 9d d5 25 bd 9b fe a1 3d 1b 98 0b 3e
       0.05567117 -0.04048692 0.0790989 0.13632242
0003d0 89 91 3c 3a 31 5c 5a bd e0 64 b4 bc e9 41 5a 3d
       0.0007193317 -0.053310577 -0.022020757 0.053285513
0003e0 fb 16 ae 3d c6 1d 0e 3d 9d 87 11 bc 2c 0e 0e be
       0.08500477 0.034696363 -0.00888243 -0.13872594
0003f0 79 37 b7 bd 50 37 dc 3d 36 68 09 3e 3a be 7b bd
       -0.089461274 0.107527375 0.1341866 -0.06146071

lstm.weight_hh_l1 f4 [256, 64]
000000 ee 48 16 3e e7 18 11 be 4d c6 29 bd 02 67 b1 3d
       0.14676258 -0.14169656 -0.04144888 0.08662225
000010 6f 10 b3 3d d7 2f a2 bd 38 15 a7 3d e5 90 bf 3d
       0.08743369 -0.07919281 0.08158344 0.09353808
000020 5a e5 e0 3d ac bd 93 bd 5b 64 b8 bc 34 c8 95 3d
       0.10981245 -0.072139114 -0.02250879 0.07313576
000030 9f 1c 90 3d da 85 20 3d f5 86 11 bc 03 56 3d bd
       0.07036709 0.03919015 -0.008882274 -0.046224605
000040 50 88 2b 3e 6a ae aa 3c 72 fb 35 3b a0 61 74 bd
       0.16751218 0.02083512 0.0027768281 -0.059663415
000050 b9 51 cd 3d 69 63 bd 3d a3 5c ba 3c 0e bf 58 3d
       0.10025353 0.092474766 0.02274925 0.05291658
000060 a3 4a dd bd 16 6a 0a 3e 70 76 78 bd 8b c6 6b bb
       -0.108052514 0.13517031 -0.060659826 -0.0035976495
000070 7c be e1 3c 1d 51 e8 bd 59 69 8a bd a7 7d ad bd
       0.02755665 -0.11343596 -0.06758375 -0.08471232
000080 9a 03 fd bd 50 8a 39 3d 6e 0a ad bd 50 7d 15 bd
       -0.123542026 0.04529792 -0.08449255 -0.03649646
000090 63 51 2c 3d 1d 08 08 3e d2 e0 ea bc 9e ab a7 bd
       0.042069804 0.13284345 -0.028671656 -0.0818703
0000a0 e8 c9 99 bd bf 08 54 3d 95 4e 71 3d a2 a4 0c 3d
       -0.07509214 0.051766153 0.058912832 0.034336694
0000b0 8f 03 2f 3e c9 1f 0b 3d ef 5c 15 be 2e db 1c bd
       0.17091201 0.03396586 -0.14586233 -0.038294964
0000c0 31 0d 48 bd fd ac 80 3d de e6 a6 bd 91 04 1e bc
       -0.048840705 0.06282995 -0.08149503 -0.009644643
0000d0 1c 97 1d bd 6f c8 0d be cf 6b 3a bd ed 34 bd 3d
       -0.038474187 -0.1384599 -0.04551297 0.092386104
0000e0 52 59 29 3d 81 f1 d1 bd 14 69 04 39 12 9f 67 bc
       0.041344948 -0.10251141 0.00012627646 -0.014137046
0000f0 a2 2b b8 3d e7 4e 08 3e dc 1a 5a bd 78 50 eb 3d
       0.08992697 0.13311349 -0.05324827 0.114899576
000100 d7 75 66 bd e1 c1 c2 3d 50 46 3c bd 10 2a ee 3d
       -0.056264725 0.09509636 -0.045965493 0.116291165
000110 db 92 5a 3c 7c 74 c6 3d e7 47 b7 bd d0 84 69 3d
       0.013340677 0.096901864 -0.08949261 0.057011425
000120 d9 bf 37 bd 74 ef a0 3d cb e7 cd 3c 7e 6b 65 bd
       -0.044860695 0.07858172 0.025134942 -0.056010716
000130 97 0a b1 3d b0 65 20 be 02 b6 9d bd 27 f5 27 bc
       0.08644598 -0.1566379 -0.07700731 -0.01025132
000140 5d ad d6 3d a1 30 75 bd b7 d4 12 be ab 00 32 3d
       0.10482285 -0.05986083 -0.14338957 0.04345767
000150 b9 bd 8e 3d 25 e9 7e 3d fb ac bd 3b b4 8e 1a 3e
       0.069697805 0.062234063 0.005788443 0.150935
000160 f0 72 75 bc 3d 75 16 3e fe fe bd bd 69 eb b4 bd
       -0.0149810165 0.1469316 -0.092771515 -0.088339634
000170 c6 4a a8 bd 34 70 98 3d 6e ee aa 3d 4c fe 69 bd
       -0.08217387 0.07443276 0.08346258 -0.057127282
000180 8c 38 46 bd 94 e6 98 bd f8 3d 1d bd 5a 2b 2c be
       -0.04839377 -0.07465854 -0.038389176 -0.16813412
000190 05 0b d8 3d 53 4c bb bb 7f 99 50 bd e2 d8 b6 bd
       0.10548977 -0.0057158857 -0.050927635 -0.08928086
0001a0 d0 36 21 bd 60 00 cc bd 08 fd 84 3d 25 d8 c5 3d
       -0.039358914 -0.09961009 0.064935744 0.09660367
0001b0 b2 b0 91 3d 7a c5 ad 3c 3e b9 15 be ef 5b 8d 3d
       0.0711378 0.021212328 -0.14621446 0.069023006
0001c0 35 a9 84 bd e9 1e a7 bc 55 59 5d bd 5b 34 02 3d
       -0.06477586 -0.020400481 -0.05404027 0.03178821
0001d0 4d 10 a0 3d ea 9c 1a bc 14 53 78 bd 86 9e ab bd
       0.07815609 -0.009436825 -0.060626104 -0.08379845
0001e0 d7 ce fe 3c be 4d 08 bc 10 89 10 bc 41 fe e6 bd
       0.031104488 -0.008319316 -0.008821741 -0.11278964
0001f0 fa f2 d8 bb eb 84 19 3d 16 95 46 3d 6d 60 30 3e
       -0.006620762 0.037480276 0.048482023 0.17224284
000200 92 62 21 bd e0 15 51 bd 27 be 73 bd eb e3 f7 bb
       -0.039400645 -0.051046252 -0.059507515 -0.0075650117
000210 77 44 72 3b aa ec 12 bd 26 e7 21 3d 37 77 21 3e
       0.0036967078 -0.03587023 0.03952708 0.15768133
000220 f1 a3 a9 bc c2 5b 6e ba 05 b6 92 3d a2 12 a6 3d
       -0.020708056 -0.00090926525 0.07163624 0.08109023
000230 53 9e 08 bd 2b 45 8c bd 37 c9 98 3d bd ac 1b 3c
       -0.033354115 -0.0684913 0.07460254 0.009501633
000240 0f 58 29 bd 77 5e b9 3d c2 ff 1c 3c 7a b2 bb 3d
       -0.041343745 0.09051221 0.009582462 0.09164901
000250 f8 f7 c2 bd 5e 3a 1a 3c 40 de bb 3d 27 b3 53 bd
       -0.095199525 0.00941333 0.0917325 -0.051684525
000260 b6 4c 8b bc 08 8c 97 3c 56 2d 73 3d c2 27 90 3d
       -0.017004352 0.01849939 0.059369408 0.07038833
000270 85 a9 97 3d 94 73 a1 bd 49 08 bd bd 4b 0b ea bc
       0.0740538 -0.07883373 -0.09230096 -0.028569838
000280 3b c7 d9 3d 3e 88 a2 3d be cf 4f bd 97 4f 68 bd
       0.10633703 0.079361424 -0.050735228 -0.056716528
000290 46 98 dc bd e5 81 02 3d e5 dd d8 3d ae 8d cc 3d
       -0.10771231 0.03186216 0.10589198 0.09987961
0002a0 51 cf 1c be 88 68 e9 bd 35 30 0d bd 3b c1 88 3d
       -0.1531346 -0.11396891 -0.034469802 0.06677481
0002b0 2c 7f aa bb a1 2e 6a bd cc 1f ba 3c 1b 1d b9 bd
       -0.0052031484 -0.057173375 0.02272024 -0.090387546
0002c0 01 3a 9b bd 44 08 af bb 98 5e 77 3c 73 b7 d2 3d
       -0.07579423 -0.0053415615 0.0150982365 0.102888964
0002d0 3e 25 00 3e 17 2a d8 bd b8 d2 22 b9 fc 75 45 3e
       0.12514207 -0.10554903 -0.00015528023 0.19283289
0002e0 7c c4 d7 3d b0 84 cf bd bf c7 5a 3d d5 8e ca bc
       0.10535523 -0.1013273 0.05341315 -0.02472631
0002f0 e3 86 f1 bc b0 05 50 3d 45 d1 f6 3d af d6 d1 3d
       -0.029483264 0.050786674 0.12051634 0.10246026
000300 62 47 ac bb b7 90 f4 3c cc ce ca bc e2 ac cd 3d
       -0.005257533 0.029854162 -0.024756812 0.100427404
000310 7c 6c 14 bd 73 f8 35 3d c6 5e 3d bd 56 59 b9 3d
       -0.03623627 0.044426393 -0.04623296 0.090502426
000320 0b f4 dd 3d 3a 81 83 bb 71 ce 6a bc 80 64 8e 3d
       0.10837563 -0.0040132077 -0.014331446 0.069527626
000330 5f 90 ea bd 03 d5 a4 3d 1b 39 2c 3c 78 23 8a 3d
       -0.11453318 0.08048441 0.010511662 0.067450464
000340 ab 38 bd bd e1 1e 7c 3d f3 a5 fd 3d fd c6 a7 bd
       -0.09239324 0.061552886 0.12385168 -0.08192251
000350 3f 6e d7 bc 60 e0 e6 bc 0e ad d2 bd 5c 98 8f bb
       -0.026297687 -0.028183162 -0.10286914 -0.0043821763
000360 a6 0a 0e 3e ee c6 fc bd 09 02 f4 bd 09 10 a1 bd
       0.1387125 -0.1234263 -0.11914451 -0.078643866
000370 f2 34 4d bd 43 07 13 bd 9d 51 86 3d 03 f6 c8 bc
       -0.05009932 -0.035895597 0.06558535 -0.02453137
000380 5d e6 ff 3d 46 89 10 bd 33 93 93 bb 80 21 74 bd
       0.1249511 -0.035287164 -0.0045036315 -0.05960226
000390 6b b0 02 be 3f 7b 45 3d a0 bf b0 3d 7a 4a b6 3d
       -0.1276261 0.04821324 0.086302996 0.08900924
0003a0 94 a8 cc bc ce b8 9c 3d 1c 48 90 3d 1b 97 2b 3d
       -0.024982728 0.07652436 0.07045004 0.041892152
0003b0 9c 6f b3 3d 6a d9 b8 3c 74 6e b2 bd 97 fc d1 3c
       0.08761522 0.022564609 -0.087124735 0.02563314
0003c0 ad c3 56 3d 46 28 0e 3e 65 64 84 3d 11 17 1d 3d
       0.052432705 0.1388255 0.06464461 0.038352076
0003d0 9f 98 ce 3d 9f 59 17 be 91 fc 6c bd 05 ce dc 3d
       0.10087704 -0.14780281 -0.057858054 0.107814826
0003e0 6a 86 e8 bd 34 91 43 3a 96 1b e1 3c 73 dc 55 3d
       -0.113537624 0.00074602966 0.027478974 0.05221219
0003f0 16 11 78 3d 9c ed 17 3e 54 54 5d 3d 25 fa 8c bd
       0.06056317 0.14836735 0.0540355 -0.06883649

lstm.bias_ih_l1 f4 [256]
000000 17 cb 94 3d c2 0b 33 3d 1e ab 8a bd 19 a6 08 3c
       0.07265299 0.043712385 -0.06770919 0.008340382
000010 6c 2a 14 3e 15 46 1f 3b ab 2f 2a 3d 87 fe 89 3c
       0.14469308 0.0024303247 0.041549366 0.016845
000020 ed 69 17 3e 39 c0 ab 3d 06 2a 9c 3d c5 c6 3f 3e
       0.14786501 0.08386273 0.07625203 0.18728168
000030 3f e3 c9 3d e8 bc a4 3d b2 dd 6f 3d 6f 5e 6b 3d
       0.09857797 0.080438435 0.058561035 0.057463106
000040 6d 30 f3 3d f5 37 e3 3c d5 d4 54 bd c7 ae cc 3d
       0.11874471 0.027736643 -0.051960785 0.09994274
000050 88 42 26 3e 9f 5a cd bd 2e ea 6a bd 7b ec 3d 3e
       0.16236317 -0.1002705 -0.057352237 0.18547241
000060 3c 80 22 3b a1 37 ff 3d f7 49 a3 3d b5 b4 68 bc
       0.0024795672 0.12461782 0.07973092 -0.01420324
000070 ab 1c 63 bb a1 32 db 3d 81 9f c3 3d 8c 12 20 3c
       -0.0034654539 0.10703016 0.09551907 0.009770047
000080 f7 31 db 3d bb d2 39 3d bb a6 5e 3d b0 c5 32 3c
       0.107028894 0.045366984 0.054358225 0.01091139
000090 d3 32 97 3d 21 03 94 3d e0 6f 3e 3d 85 f8 a6 bd
       0.07382741 0.07227159 0.04649341 -0.0815287
0000a0 40 42 ce 3d 57 d6 05 3d a3 55 0e 3e f1 2f 3a bd
       0.1007123 0.032675114 0.13899855 -0.045455877
0000b0 ae 71 72 3b 1e 70 01 3e 8e 78 90 bd 51 d0 e0 3d
       0.0036994028 0.12640426 -0.07054244 0.10977233
0000c0 89 da b0 3d 65 64 1d bc dc 37 30 bd f5 87 17 3e
       0.08635432 -0.009606455 -0.04302202 0.14797957
0000d0 00 e6 de 3d 8a f7 24 3d 4c 19 2f bd 92 f9 0c 3e
       0.10883713 0.040275134 -0.042748734 0.13767079
0000e0 1b fc f5 3d 92 35 1c 3d 2d 81 b2 3d 59 b6 20 bd
       0.12010976 0.038137026 0.087160446 -0.0392364
0000f0 25 c2 a9 bd 0c ff 07 3e e5 b8 4e bc 16 52 00 3e
       -0.08288983 0.13280886 -0.0126173245 0.12531313
000100 ad 98 98 3d 16 b2 83 bc 37 a7 19 3c a7 4f 54 bd
       0.074509956 -0.016076129 0.009378246 -0.051833775
000110 9d 56 ba bd 11 52 f5 3d dc a7 34 3e 58 b8 0b 3e
       -0.090985514 0.119785435 0.17642158 0.1364454
000120 15 76 94 bd 59 9e 8e 3a ef 70 2b 3e 85 01 bc 3d
       -0.07249085 0.0010880932 0.167423 0.09179977
000130 e2 3b ee 3c ed 93 33 bc ab b3 1c 3c 18 19 97 bd
       0.029081289 -0.010960561 0.009564321 -0.07377833
000140 fa bb 30 3e 31 52 0d 3e 09 30 05 3e 51 ec c0 3d
       0.17259207 0.13800885 0.13006605 0.09420074
000150 01 a2 9a 3d 76 cd 42 3d 9a 9f d5 3d 8a 4a 98 bd
       0.07550431 0.047559224 0.10430832 -0.07436092
000160 a6 7f f4 bb 58 11 ce 3d 93 1f 88 bd ad 8c c1 bd
       -0.007461506 0.10061902 -0.06646647 -0.0945066
000170 a7 fd 6a bd 24 26 eb 3d b9 95 15 bd 53 e5 93 bd
       -0.057370808 0.11481884 -0.03651974 -0.072214745
000180 0a 1e a8 3d a2 8e 8c 3d 9d 45 f3 bd cf 3d 7e bd
       0.082088545 0.068631425 -0.11878512 -0.062070664
000190 5e fc 6a bb 0c ff 2c 3e ef 4c 4f 3d fb bb 9a 3d
       -0.003585599 0.16894168 0.05061048 0.07555386
0001a0 5b 2f b6 3c 90 35 2c bd f8 23 ca 3d b1 27 93 bc
       0.022239378 -0.04204327 0.09870142 -0.017963262
0001b0 4c 59 0e bd 26 32 e7 3d 8d 18 ab 3d a6 11 ed 3d
       -0.03475313 0.11288862 0.08354292 0.11575632
0001c0 d2 60 8c bd 86 c0 e8 bb df bb e1 bb 10 a3 05 3c
       -0.068544045 -0.0071030287 -0.006888851 0.008156553
0001d0 92 88 0e bd 55 9c c7 bd a6 31 4e bc 19 c0 ca bc
       -0.034798212 -0.09746615 -0.012585079 -0.024749802
0001e0 2a aa f4 3d 90 f1 05 3e b5 98 80 3d 7c 75 99 bd
       0.11946519 0.1308043 0.062791266 -0.074931115
0001f0 54 5c 01 3e ee d6 82 3d 6a ae 10 3e 2d 13 8a bd
       0.12632877 0.06388651 0.14129034 -0.06741939
000200 a5 cd 8f 3d ac bd 2e 3c 71 cf 88 bb 0e 72 f3 bd
       0.070216455 0.0106653385 -0.0041751196 -0.118869886
000210 fd ec 64 3c 0c 1f 57 3b fd 5a 95 3d 6b 22 11 bd
       0.013972518 0.0032824902 0.07292745 -0.035433214
000220 6b a9 2e bc 57 80 69 3d ee 6f fd bd 5d 93 1d bd
       -0.01066051 0.05700716 -0.123748645 -0.038470615
000230 2e d9 05 bd 02 a5 f1 bd 6e 9d b9 bd ff 98 44 bc
       -0.03267782 -0.11799051 -0.090632305 -0.011999368
000240 be 3e d6 bd d7 f7 e3 3c 6a ac bf bd e9 4b ed bd
       -0.10461186 0.02782814 -0.09359057 -0.11586744
000250 71 e6 79 bd 16 c2 0c bb f7 62 08 3e df 14 10 3d
       -0.06101078 -0.002147799 0.13319002 0.035176154
000260 b2 ed 3b bd d6 c3 aa 3d a0 8f 0d bd 10 c2 96 3d
       -0.04588098 0.08338134 -0.0345608 0.07361233
000270 76 30 8a 3b aa 5b 1e 3d d7 ca 9b 3d a2 2f 8f 3d
       0.004217203 0.038661636 0.07607048 0.06991507
000280 7f 34 84 bd ff 24 0a be 80 0e f9 3d d5 26 a0 bd
       -0.06455325 -0.13490675 0.12160969 -0.078199066
000290 ac ef ff bc 0e 00 13 bd 70 4f ea bb 88 46 82 3c
       -0.031242214 -0.035888724 -0.007150583 0.015902773
0002a0 8f 51 9f 3d e4 b4 8c bd 93 6a b9 bd 89 11 04 3c
       0.07779228 -0.0687044 -0.090535305 0.008060821
0002b0 7a 73 f3 3d 65 59 79 bd 85 e9 53 3d ca 2e 8a 3d
       0.1188726 -0.06087627 0.051736373 0.067472056
0002c0 b2 ad 6a 3d 36 b2 5a 3d f6 3c b1 bb 42 1c 3f 3b
       0.057294555 0.05339261 -0.0054088784 0.002916113
0002d0 4e c0 99 bd 80 df a4 bc de 89 59 3d 1e e7 8e bd
       -0.07507382 -0.020126104 0.053109996 -0.06977676
0002e0 41 28 75 3d ad 04 ce bc 57 f6 8d 3d 11 fb 46 bd
       0.059852842 -0.025148714 0.06931751 -0.04857928
0002f0 c2 d0 0a be 03 e5 4a bd e8 df 58 bc 74 80 ab bc
       -0.13556197 -0.04953481 -0.013236977 -0.020935275
000300 e7 53 2a 3e b1 90 30 bd 79 71 a0 3d 66 d4 40 3d
       0.16633569 -0.04310674 0.07834143 0.04707756
000310 86 78 24 3c 28 82 f6 3d f3 fd 80 bd 1c ba 95 3d
       0.010038501 0.12036544 -0.06298437 0.07310888
000320 5e 1e 01 3e 4c b5 67 3d c4 a4 e5 b9 c6 c3 df 3d
       0.1260924 0.056569383 -0.00043801044 0.10926013
000330 91 d8 23 3e d0 4c e4 3d e9 27 24 3e fa 6b f9 3d
       0.16000582 0.11147463 0.1603085 0.12178798
000340 ca 04 60 3d 0c 75 26 bd 45 6f 80 3d 52 77 1b 3e
       0.054692067 -0.04063897 0.06271223 0.15182236
000350 b6 2a 19 3e d3 bd 57 3d 30 16 c1 3b 05 03 a2 3d
       0.14957699 0.052671265 0.0058925375 0.07910732
000360 68 d0 96 3d 47 05 b7 3d b2 79 e0 3b fc 66 ee bc
       0.07363969 0.089365534 0.0068504447 -0.029101841
000370 38 ee a3 bb c4 87 81 bd d3 0e 1d 3e b7 ec 2f 3e
       -0.005002763 -0.06324723 0.15337686 0.17180143
000380 44 42 3f 3d de 10 21 3e bf 29 54 3d e7 31 15 bd
       0.046694055 0.1572909 0.051797625 -0.036424544
000390 c3 51 05 3e 16 7d 06 3e b8 19 53 3d e1 eb f9 3b
       0.13019471 0.13133654 0.0515382 0.007626996
0003a0 d2 19 4a 3e 8e fa f9 3d 92 84 97 bd bf aa 4c bd
       0.19736412 0.12205993 -0.07398333 -0.049967524
0003b0 94 e1 47 3e 02 64 15 bd 36 4a 88 3d 9a 86 15 3e
       0.19519645 -0.036472328 0.066547796 0.14602128
0003c0 9e 61 fc bc 91 f3 77 bc 9a 74 35 3e 0c e6 ef 3d
       -0.030808266 -0.015133754 0.17720261 0.117138
0003d0 c1 a6 05 3e 5f ca 38 3e 5e f8 b4 3d 21 94 e6 3d
       0.13051893 0.18045948 0.08836435 0.11258722
0003e0 8b 1d 24 bb ab 69 0a 3e 98 cf 75 3d 7a ce 05 bd
       -0.0025042023 0.13516872 0.06001243 -0.032667615
0003f0 ab 0e 5f bd c5 99 5b 3d 35 30 7a 3d 09 d5 22 3e
       -0.054457348 0.053613443 0.06108113 0.15901579
